models/stolen_watermarked_model_mnist_baseline_onlyW.pt (torch, 107467 bytes, 8 tensors)

net.0.weight f4 [16, 1, 8, 8]
0.08442863 0.06019465 0.0840031 -0.041949153 0.01954206 -0.066802934 -0.16124386 -0.063209124
0.10816586 0.0135082025 0.040054467 0.058616575 -0.072781496 -0.07221379 -0.016100982 0.05571323
-0.14158867 -0.020165695 0.1146072 0.11309473 0.112589285 0.1058634 0.029945638 0.03319956
-0.053822163 0.14059612 -0.030732876 0.15585491 0.201234 0.20837906 -0.029766914 -0.09406271
-0.046106376 -0.02611449 -0.109220676 0.05482935 0.015071287 0.19059746 -0.061574023 0.080291644
-0.058855265 0.094269015 -0.112368315 -0.040405914 -0.14918776 0.10515648 -0.060798362 -0.11676778
-0.07471041 -0.06144321 -0.08599401 0.05082644 -0.06671853 0.07259006 0.13604403 0.001552399
-0.11240566 -0.13636175 -0.010871748 -0.008823917 -0.04259921 -0.058304805 0.13750947 0.06495641
0.058631707 0.021511836 -0.0047934614 -0.09218859 -0.02739461 -0.15773645 -0.07472087 -0.04681037
0.17595905 0.042472724 -0.027797004 -0.07497653 -0.11194526 -0.14874421 -0.102055065 0.02586694
0.21463682 -0.05137646 -0.061998554 -0.038414635 -0.057083163 -0.11579669 0.058060747 0.021705473
0.105458856 -0.050693482 -0.05344084 -0.016771728 0.036378857 -0.003969961 -0.0058057257 0.09111953
0.18081607 -0.037081726 -0.013143801 -0.020118542 0.09911063 0.056053583 0.08546026 0.01210185
0.08357312 0.03705922 -0.005518606 0.028127162 0.05559436 0.031563856 0.05274677 -0.06112961
0.07578576 0.05812179 0.06235617 0.1173974 0.048855986 -0.06964108 0.075900756 0.09036889
-0.01941325 -0.114408724 0.04284462 -0.05557837 0.021408824 -0.07426205 0.034143094 0.030889621
0.07910601 0.14370273 0.03725335 -0.023296958 -0.044167038 -0.0121874 -0.025794478 -0.027776223
0.13956666 0.06725581 -0.014261809 -0.06584836 -0.059938356 -0.035484005 -0.008056124 -0.027947254
-0.034197196 -0.017350057 -0.00903302 -0.0056808908 -0.14867744 -0.08372459 0.036616616 0.032257866
-0.039058182 -0.103183724 -0.017811593 0.03571043 -0.06739954 0.017809195 -0.020996302 -0.10369936
-0.01635119 -0.019690987 -0.06715902 -0.08410415 -0.07511922 -0.09256995 -0.07992774 -0.024306543
-0.08296598 -0.07972416 -0.024315923 -0.1067057 -0.06799134 -0.0406784 0.08972218 0.10445543
0.010004028 -0.05819854 -0.07026456 -0.08931142 0.0142632825 -0.061575357 0.14249106 0.036254082
-0.0052163024 -0.018470744 0.02534753 -0.08788518 -0.0054529575 0.09779064 0.008759465 0.035587616
0.0134022245 0.011319164 0.032696415 -0.13444884 -0.05038187 -0.23758653 -0.01817082 -0.037216634
0.01906349 -0.06714927 -0.0027085708 -0.00566642 -0.123054355 -0.014316978 -0.091203086 0.06301644
0.07168313 -0.103344366 0.020933053 -0.090956695 0.07249919 0.012618795 0.1974065 0.0027837148
-0.055540834 0.011951968 -0.047650434 0.0340415 0.03182204 0.18723124 0.15993556 0.13047096
0.004701389 -0.13640344 0.072773114 0.022403114 0.066152915 -0.016602302 0.09997438 0.008390812
0.08708104 0.13286415 0.013185949 -0.059225358 -0.026336437 -0.0027270913 -0.020516548 -0.072974555
0.11815956 0.019283103 0.11715272 0.034946043 -0.04398514 -0.00895513 0.09215124 -0.0012146246
-0.06443874 -0.026071033 -0.06354497 -0.13009691 -0.0041851164 0.054982614 0.013856954 0.0952029
00000000: ebe8 ac3d aa8e 763d d109 ac3d e0d2 2bbd
00000010: ac16 a03c facf 88bd 1c1d 25be c973 81bd
00000020: 1086 dd3d 8251 5d3c 2710 243d ef17 703d
00000030: 770e 95bd d3e4 93bd 35e6 83bc 8e33 643d
00000040: 9ffc 10be 8732 a5bc 2eb7 ea3d 369e e73d
00000050: 3695 e63d e9ce d83d 8e50 f53c 43fc 073d
00000060: a174 5cbd 6ef8 0f3e 83c3 fbbc 6e98 1f3e
00000070: 4910 4e3e 5261 553e bed9 f3bc f3a3 c0bd
00000080: 0ada 3cbd 0eee d5bc 17af dfbd be94 603d
00000090: 8fed 763c fb2b 433e 0b35 7cbd f26f a43d
000000a0: 3812 71bd 1d10 c13d 5c21 e6bd ac80 25bd
000000b0: adc4 18be 485c d73d b407 79bd f223 efbd
000000c0: c501 99bd e0ab 7bbd a11d b0bd 632f 503d
000000d0: baa3 88bd 19aa 943d 204f 0b3e de79 cb3a
000000e0: f034 e6bd 6aa2 0bbe 6b1f 32bc 3192 10bc
000000f0: 827c 2ebd 05d1 6ebd 48cf 0c3e de07 853d
00000100: cd27 703d 9739 b03c 7812 9dbb 5fcd bcbd
00000110: a96a e0bc aa85 21be 4107 99bd 3bbc 3fbd
00000120: 9c2e 343e e1f7 2d3d 8bb6 e3bc 4c8d 99bd
00000130: 8e43 e5bd 6750 18be 3f02 d1bd e8e6 d33c
00000140: c1c9 5b3e 1f70 52bd 32f2 7dbd aa58 1dbd
00000150: 09d0 69bd d126 edbd 1bd1 6d3d adcf b13c
00000160: d0fa d73d f8a3 4fbd c8e4 5abd dd64 89bc
00000170: ff01 153d 7216 82bb f53d bebb e09c ba3d
00000180: d927 393e 02e3 17bd 1959 57bc a4cf a4bc
00000190: 84fa ca3d 7198 653d ca05 af3d d646 463c
000001a0: 6228 ab3d 69cb 173d 6cd5 b4bb ef6a e63c
000001b0: e9b6 633d 1a49 013d ff0c 583d 0b63 7abd
000001c0: 9135 9b3d 1d11 6e3d 2f69 7f3d 0c6e f03d
000001d0: 371d 483d fc9f 8ebd db71 9b3d 5313 b93d
000001e0: 8908 9fbc 1f4f eabd d77d 2f3d 25a6 63bd
000001f0: 8f61 af3c b416 98bd a1d9 0b3d 3b0c fd3c
00000200: 5502 a23d cf26 133e f896 183d 43d9 bebc
00000210: 7fe8 34bd a9ad 47bc f14e d3bc f68a e3bc
00000220: 90ea 0e3e 6abd 893d 5daa 69bc 81db 86bd
00000230: ec81 75bd ad57 11bd d5fd 03bc a4f1 e4bc
00000240: 5c12 0cbd b521 8ebc 3bff 13bc c426 babb
00000250: e63e 18be cc77 abbd 4efb 153d d320 043d
00000260: 79fb 1fbd fd51 d3bd 9ee9 91bc 1a45 123d
00000270: c508 8abd 97e4 913c 7000 acbc 5460 d4bd
00000280: eef2 85bc fe4e a1bc ab8a 89bd cc3e acbd
00000290: 1bd8 99bd 5095 bdbd 28b1 a3bd 841e c7bc
000002a0: 11ea a9bd 6c46 a3bd 3032 c7bc 8588 dabd
000002b0: 0b3f 8bbd 659e 26bd 43c0 b73d baec d53d
000002c0: efe7 233c 9861 6ebd dee6 8fbd e8e8 b6bd
000002d0: 8bb0 693c 7136 7cbd 2de9 113e 297f 143d
000002e0: 84ed aabb f54f 97bc a0a5 cf3c 25fd b3bd
000002f0: b9ae b2bb 7646 c83d dc83 0f3c 52c4 113d
00000300: 0195 5b3c 0474 393c adec 053d f5ac 09be
00000310: 385d 4ebd e249 73be f9da 94bc 7870 18bd
00000320: 092b 9c3c 8e85 89bd 4782 31bb 60ad b9bb
00000330: ec03 fcbd c291 6abc afc8 babd c30e 813d
00000340: 9bce 923d 36a6 d3bd cb7b ab3c 8147 babd
00000350: 757a 943d 10bf 4e3c ee24 4a3e fc6e 363b
00000360: c97e 63bd 30d2 433c 1a2d 43bd 1a6f 0b3d
00000370: d457 023d 8cb9 3f3e 26c6 233e 2e9a 053e
00000380: 1c0e 9a3b 58ad 0bbe 120a 953d bc86 b73c
00000390: 2e7b 873d 8d01 88bc 5ebf cc3d 9e79 093c
000003a0: 8b57 b23d 8a0d 083e e109 583c 4a96 72bd
000003b0: 83bf d7bc 00b9 32bb 5212 a8bc af73 95bd
000003c0: a4fd f13d 99f7 9d3c c4ed ef3d 9523 0f3d
000003d0: c329 34bd 8ab8 12bc cab9 bc3d 0a34 9fba
000003e0: 75f8 83bd eb92 d5bc dd23 82bd 2038 05be
000003f0: 4d23 89bb 7335 613d 4708 633c bdf9 c23d

net.0.bias f4 [16]
-0.19477098 0.050396945 0.060385827 -0.046021096 -0.18374833 -0.19401816 -0.14032362 -0.16936637
-0.10278096 -0.043018684 -0.047934655 -0.12746751 -0.09806802 -0.13042215 0.0058919466 -0.20707338
00000000: 0b72 47be 076d 4e3d 2157 773d 9e80 3cbd
00000010: 8628 3cbe b2ac 46be ffb0 0fbe 616e 2dbe
00000020: d37e d2bd 5c34 30bd 2157 44bd d886 02be
00000030: e3d7 c8bd 628d 05be 3b11 c13b 0b0b 54be

net.3.weight f4 [32, 16, 4, 4]
-0.060234856 -0.0026720036 -0.040177613 -0.047522362 -0.048189893 -0.015192299 0.022263106 0.021320136
-0.02368975 0.015214266 0.031421535 0.04393462 0.031729706 -0.04007002 0.022764036 0.013148633
0.00018925403 -0.014898781 -0.05202614 -0.003696204 0.019163884 -0.007001122 -0.046512034 0.007523492
0.0054434645 -0.012794914 -0.026140936 -0.017506855 0.005542244 0.06303938 -0.026999515 -0.014763579
-0.058341917 -0.03715674 0.01122647 -0.01767083 -0.049293935 -0.0011878719 -0.044592965 -0.02804481
-0.061516896 -0.056476306 -0.027699277 -0.045531165 -0.030383008 -0.08029405 -0.01912435 -0.017695736
0.0028330826 -0.035616044 -0.039915793 -0.034430597 -0.0020094544 0.031307027 0.0106432745 0.015790684
0.053096477 0.033256456 0.019344442 0.055719897 -0.021508938 -0.0031217197 -0.015620744 0.018058943
-0.018388478 0.005970914 0.025568297 -0.013752941 0.06948977 0.020564623 0.010143223 0.027576428
0.07675311 0.036274076 0.011947086 0.021272035 -0.013949856 -0.008066819 -0.045000855 -0.018154046
0.037266534 0.038630646 0.019537585 0.0067926864 0.087838575 0.08910996 -0.029413942 0.035696592
0.03450035 0.027626337 -0.04011797 -0.0131108835 -0.020404475 -0.061799694 -0.049908772 -0.01955514
-0.019282859 -0.008785864 -0.019652199 -0.015692482 -0.038699582 0.03787232 -0.008642251 -0.013076106
-0.025808018 0.0036267203 -0.014066604 -0.024026452 -0.022656363 0.00024179503 -0.03909488 0.0010275692
-0.0044054165 0.056958593 0.046876874 -0.016853556 -0.057593625 0.0140954945 0.04948993 -0.015838109
-0.017102707 -0.02297447 -0.019243173 -0.037548162 0.035241675 0.0152611835 0.05803825 0.024534214
-0.051504012 -0.035611834 -0.039856724 -0.072415285 -0.008873385 -0.045175184 -0.040802106 0.015541031
0.0284511 -0.016325494 -0.021155244 0.048082232 0.03709698 -0.020067655 -0.010417555 -0.025729317
-0.04288454 -0.021588506 -0.028461356 -0.055489782 -0.027121285 -0.0061434577 -0.058718022 -0.0056897276
-0.0057904175 -0.025849313 -0.013225037 -0.01887104 -0.040414885 -0.028924478 -0.019383688 0.051407676
-0.007665521 0.048333738 0.032262266 0.0004274848 -0.038332976 -0.026480077 -0.02932565 -0.010254674
0.01748639 -0.051943917 -0.0610829 -0.0011289614 -0.014623781 0.026319332 -0.00033609333 0.020382833
0.05696457 0.0145892445 -0.058245573 -0.023791455 0.04933451 0.07288207 0.011334646 -0.030615771
0.07444267 0.085909255 -0.013947171 -0.003874396 0.00458702 -0.015454746 -0.04362953 -0.04569802
-0.022153983 0.053436957 0.01687539 -0.025645083 -0.027274804 0.005443894 0.009270608 0.0027615528
0.013744427 -0.009302948 -0.025282204 -0.03253728 0.02901664 -0.062258903 -0.08002617 -0.0049819616
0.031344756 -0.019893542 0.010798584 -0.016798694 0.045975253 0.042457595 0.02555025 0.009829912
0.08767569 0.042056665 -0.02441898 0.0739026 -0.0029095851 0.02288886 -0.033113126 0.027208744
0.006944441 -0.02867321 -0.03044324 -0.017578777 0.026836408 0.021949043 0.015636878 0.0397452
0.10763704 -0.019904887 0.024521947 -0.0174979 0.029184446 0.0075249937 -0.021384645 -0.050059773
-0.0074863555 -0.020630479 -0.041824527 0.0013097969 0.014823979 0.0036460343 -0.005875036 0.041354764
0.036129422 0.044459686 0.055287477 0.06925307 0.037845314 -0.008340903 0.00092139264 0.039471347
00000000: d3b8 76bd c81c 2fbb 4891 24bd cfa6 42bd
00000010: c462 45bd 1fe9 78bc 1e61 b63c 91a7 ae3c
00000020: 0211 c2bc 4245 793c deb3 003d caf4 333d
00000030: 02f7 013d 7620 24bd a57b ba3c 5d6d 573c
00000040: 7e72 4639 041a 74bc 5d19 55bd 033c 72bb
00000050: 94fd 9c3c ab69 e5bb 6783 3ebd a087 f63b
00000060: 175f b23b c2a1 51bc 8425 d6bc 896a 8fbc
00000070: b69b b53b ca1a 813d 162e ddbc f0e2 71bc
00000080: eff7 6ebd aa31 18bd 3aef 373c 6bc2 90bc
00000090: 70e8 49bd 5eb2 9bba 1da7 36bd 3bbe e5bc
000000a0: 24f9 7bbd b353 67bd 98e9 e2bc e37e 3abd
000000b0: c9e5 f8bc 3571 a4bd abaa 9cbc a6f6 90bc
000000c0: 3dab 393b 21e2 11bd be7e 23bd 1907 0dbd
000000d0: 0db1 03bb cc3b 003d 2161 2e3c 775b 813c
000000e0: b17b 593d ec37 083d 3c78 9e3c 8c3a 643d
000000f0: 8333 b0bc c495 4cbb 26ee 7fbc 59f0 933c
00000100: 6fa3 96bc a8a7 c33b 9b74 d13c 0454 61bc
00000110: a750 8e3d 2477 a83c c32f 263c f6e7 e13c
00000120: bc30 9d3d 2094 143d b6bd 433c b142 ae3c
00000130: f08d 64bc b12a 04bc d152 38bd cbb7 94bc
00000140: cba4 183d 2b3b 1e3d 490d a03c 2f95 de3b
00000150: b6e4 b33d 487f b63d 82f5 f0bc 9736 123d
00000160: 3d50 0d3d a150 e23c be52 24bd 08cf 56bc
00000170: 4927 a7bc ad21 7dbd 246d 4cbd 1a32 a0bc
00000180: 16f7 9dbc 96f2 0fbc a6fd a0bc 858d 80bc
00000190: 7483 1ebd 0120 1b3d 3a98 0dbc 2a3d 56bc
000001a0: 566b d3bc 45ae 6d3b 9d77 66bc 1fd3 c4bc
000001b0: d699 b9bc 5c8a 7d39 f421 20bd 80af 863a
000001c0: 505b 90bb 6a4d 693d f701 403d 7810 8abc
000001d0: 4be7 6bbd caf0 663c f4b5 4a3d ecbe 81bc
000001e0: fa1a 8cbc f534 bcbc dca3 9dbc 1acc 19bd
000001f0: 9359 103d 0b0a 7a3c 84b9 6d3d fafb c83c
00000200: dff5 52bd b7dd 11bd ce40 23bd 774e 94bd
00000210: ad61 11bc 9d09 39bd 1c20 27bd cf9f 7e3c
00000220: 4812 e93c 0bbd 85bc c34d adbc e0f1 443d
00000230: 01f3 173d ec64 a4bc 65ae 2abc 4ac6 d2bc
00000240: b3a7 2fbd 61da b0bc ca27 e9bc 4149 63bd
00000250: 752d debc 0f4f c9bb 4f82 70bd e570 babb
00000260: 8bbd bdbb f0c1 d3bc d3ad 58bc 7097 9abc
00000270: 148a 25bd 07f3 ecbc 8aca 9ebc db90 523d
00000280: 0d2f fbbb 99f9 453d 7025 043d 0a20 e039
00000290: 0a03 1dbd bfec d8bc 583c f0bc 3803 28bc
000002a0: 9e3f 8f3c 25c3 54bd 1032 7abd a9f9 93ba
000002b0: 9598 6fbc a49b d73c af35 b0b9 e6f9 a63c
000002c0: ae53 693d ba07 6f3c e992 6ebd 4ce6 c2bc
000002d0: fc12 4a3d 3243 953d f3b4 393c edcd fabc
000002e0: 6675 983d 31f1 af3d ad82 64bc 94e9 7dbb
000002f0: b64e 963b e735 7dbc e1b4 32bd d92d 3bbd
00000300: 457c b5bc b6e0 5a3d 423e 8a3c a315 d2bc
00000310: 696f dfbc b162 b23b c0e3 173c 2bfb 343b
00000320: 4e30 613c 646b 18bc a01c cfbc d045 05bd
00000330: 4eb4 ed3c 3103 7fbd c3e4 a3bd b93f a3bb
00000340: 5c63 003d c8f7 a2bc 8bec 303c 6a9d 89bc
00000350: 8c50 3c3d 04e8 2d3d c24e d13c a40d 213c
00000360: 508f b33d 9c43 2c3d 500a c8bc 3f5a 973d
00000370: bdae 3ebb 6b81 bb3c a1a1 07bd dfe4 de3c
00000380: 318e e33b 14e4 eabc 1a64 f9bc 5e01 90bc
00000390: 07d8 db3c 7bce b33c e918 803c ddcb 223d
000003a0: cf70 dc3d 930f a3bc 40e2 c83c c257 8fbc
000003b0: 3814 ef3c 3994 f63b da2e afbc 7a0b 4dbd
000003c0: 1a50 f5bb 4001 a9bc 3250 2bbd 7ead ab3a
000003d0: 46e0 723c 4ef2 6e3b 6083 c0bb 9d63 293d
000003e0: 72fc 133d 5c1b 363d 1f75 623d 8ed4 8d3d
000003f0: b003 1b3d 48a8 08bc 9d89 713a b5ac 213d

net.3.bias f4 [32]
-0.09883107 -0.014901414 -0.044346884 -0.06605176 0.016345425 -0.00035357304 -0.044073112 -0.014789026
-0.022708219 -0.000112414345 -0.03337547 -0.0032400887 -0.051290404 -0.081594266 -0.052009065 -0.048606083
-0.0393377 -0.0364703 -0.045105647 -0.04587692 -0.036209058 -0.0138496775 -0.05103495 -0.030033479
-0.017569743 -0.042923927 -0.031627584 -0.00544938 -0.05820353 -0.07556546 -0.047752798 -0.07834602
00000000: f267 cabd 0f25 74bc 14a5 35bd 2546 87bd
00000010: d7e6 853c c55f b9b9 0286 34bd ac4d 72bc
00000020: 9606 babc febf ebb8 b8b4 08bd ab57 54bb
00000030: e315 52bd e51a a7bd 7507 55bd 2c17 47bd
00000040: 9120 21bd e261 15bd b3c0 38bd 70e9 3bbd
00000050: f34f 14bd c2e9 62bc 060a 51bd c508 f6bc
00000060: 6cee 8fbc 00d1 2fbd ed8b 01bd b690 b2bb
00000070: d366 6ebd 10c2 9abd 7098 43bd e173 a0bd

net.7.weight f4 [32, 512]
0.0029842204 0.020473909 0.024825512 0.02207587 0.00065227033 0.022254592 0.012029016 -0.0007098422
-0.009427016 0.005041264 0.007966659 -0.015038834 0.03480846 -0.0029615026 -0.0240529 -0.021108001
0.018623725 0.018898 0.0007622739 0.020227216 0.012181282 0.03720584 0.03385102 0.064183146
0.0048092646 0.022450784 0.02261112 -0.0010571482 -0.06773492 -0.013208434 -0.023365434 -0.042693462
-0.058261536 -0.044968426 0.021805227 0.040131047 0.007154958 -0.020517044 0.030562261 0.022579022
0.0078055165 0.04768064 0.0080444915 -0.008802577 -0.051914915 0.009861253 0.021077607 -0.020284882
-0.0062452033 0.033329934 0.073400214 0.06548418 0.038909175 0.021083333 0.01888161 0.007674635
0.048786968 0.029592885 0.013157526 -0.0345634 -0.03415534 -0.045216855 -0.050464373 -0.026261954
-0.009693958 0.014706207 -0.022930652 -0.0372624 -0.010204862 -0.06681915 -0.075536996 -0.0318371
0.007695957 -0.014516372 -0.03209916 0.029489022 -0.021508005 -0.0011840415 -0.03364956 0.012026658
0.02106291 0.036447752 0.029326841 -0.00773594 -0.006771122 -0.06589864 0.020101868 -0.015429433
-0.02739686 -0.013440543 -0.008069409 -0.015448265 -0.025953457 -0.02440609 -0.01874095 0.023227913
0.009753228 -0.016156593 0.0067946566 -0.013317551 -0.0004659034 -0.03070713 -0.031176524 -0.04394668
-0.027853625 -0.038942296 -0.035698645 -0.019534402 0.0069829035 0.0033914628 0.033767737 0.021083977
0.015100976 -0.036759943 -0.008903062 -0.02893476 -0.0005810126 0.012800655 -0.0014764133 -0.028023083
-0.023352282 -0.03840262 0.03847757 0.03403262 -0.01099873 -0.013300507 0.057349883 0.034995392
0.0029038824 0.008365159 -0.009321354 -0.06200041 0.0060414937 0.02141307 -0.009118832 -0.045183163
-0.015497716 0.01583422 -0.012473929 -0.041357916 -0.03289134 -0.031107744 0.023831427 -0.03156267
0.0048955516 0.06748876 -0.039871756 -0.04278168 -0.00018087564 0.0020770251 -0.029443434 -0.030503096
-0.0128158005 0.026913712 0.010092265 -0.03715516 -0.011750724 0.05718981 0.012441144 -0.037680194
-0.009189457 -0.010792144 -0.019538036 -0.035610538 -0.012204134 -0.080570005 -0.00023922465 -0.006672133
-0.0057395883 -0.02676755 0.02585576 -0.005240233 -0.011036714 0.004155697 -0.022702334 0.016630724
-0.007164081 -0.001909923 -0.026917761 0.0011585212 0.014688598 -0.053777393 -0.04437188 -0.0075138793
-0.0097158225 -0.009176516 0.011651736 0.03702152 0.0026924037 -0.007721982 -0.027393458 0.015385134
0.056461114 0.029023753 0.039587356 -0.008094335 -0.03838936 -0.023849105 0.022021443 0.035250142
-0.082225166 -0.030668158 -0.044351697 -0.019426188 0.022800954 -0.014702154 -0.052119132 -0.044565514
-0.005929232 -0.044657197 -0.041433226 0.015639078 -0.02786312 0.0063126837 -0.029714145 -0.044505823
0.0013021424 -0.0052208225 0.0070359926 -0.052780107 0.00067293685 -0.018698318 -0.025343996 -0.0030222093
0.021868922 0.010233596 -0.047756936 -0.0474348 -0.04350135 0.011289854 -0.045701556 -0.061533697
-0.037313662 -0.009056804 -0.05127705 -0.043987535 -0.018783176 -0.028980982 0.023466503 0.008261206
0.009201278 0.008549851 -0.0839128 -0.006007043 0.029664101 0.032139894 -0.063246846 -0.00029201971
0.04289384 0.060716774 0.01655043 0.023330428 -0.019019982 -0.022623787 -0.038662422 -0.015383332
00000000: e992 433b e6b8 a73c df5e cb3c 74d8 b43c
00000010: 1ffd 2a3a 434f b63c 5a15 453c b414 3aba
00000020: c573 1abc 3031 a53b 9786 023c 7165 76bc
00000030: 5193 0e3d c515 42bb 960a c5bc b0ea acbc
00000040: c890 983c facf 9a3c 56d3 473a 8cb3 a53c
00000050: 0094 473c 2765 183d 5ea7 0a3d 7472 833d
00000060: 0997 9d3b b5ea b73c f53a b93c 0290 8aba
00000070: 9bb8 8abd 3068 58bc de68 bfbc 57df 2ebd
00000080: a6a3 6ebd d030 38bd e0a0 b23c 7460 243d
00000090: 2374 ea3b 5c13 a8bc b55d fa3c a4f7 b83c
000000a0: 6bc5 ff3b c64c 433d 0bcd 033c af38 10bc
000000b0: bca4 54bd 1891 213c f2aa ac3c 7b2c a6bc
000000c0: 90a4 ccbb f884 083d da52 963d 921c 863d
000000d0: 3a5f 1f3d f4b6 ac3c 9bad 9a3c 817b fb3b
000000e0: d8d4 473d c76c f23c aa92 573c 5a92 0dbd
000000f0: 78e6 0bbd 4f35 39bd bbb3 4ebd 4f23 d7bc
00000100: 68d3 1ebc 4ef2 703c 10d9 bbbc 75a0 18bd
00000110: 4b32 27bc 7ad8 88bd 24b3 9abd 9e67 02bd
00000120: 5e2e fc3b 14d6 6dbc 697a 03bd f692 f13c
00000130: 8e31 b0bc d731 9bba 1fd4 09bd 760b 453c
00000140: 208c ac3c 3d4a 153d d83e f03c c57d fdbb
00000150: 4ae0 ddbb def5 86bd acac a43c bccb 7cbc
00000160: 616f e0bc b935 5cbc 8e35 04bc b81a 7dbc
00000170: 589c d4bc 48ef c7bc 9f86 99bc 7748 be3c
00000180: 01cc 1f3c d55a 84bc b6a5 de3b dc31 5abc
00000190: 7f44 f4b9 858d fbbc e965 ffbc 6f01 34bd
000001a0: 492d e4bc f581 1fbd be38 12bd 9c06 a0bc
000001b0: d7d0 e43b 4e43 5e3b 0a50 0a3d 4eb8 ac3c
000001c0: 166a 773c 9891 16bd 26de 11bc 9708 edbc
000001d0: 184f 18ba d7b9 513c 3684 c1ba aa90 e5bc
000001e0: 494d bfbc 114c 1dbd a89a 1d3d ca65 0b3d
000001f0: 0434 34bc 5fea 59bc b6e7 6a3d 5457 0f3d
00000200: 104f 3e3b 050e 093c 98b8 18bc 24f4 7dbd
00000210: b9f7 c53b 766a af3c 2767 15bc fb11 39bd
00000220: 22ea 7dbc c4b6 813c 735f 4cbc eb66 29bd
00000230: 12b9 06bd abd5 febc 203a c33c dc47 01bd
00000240: dd6a a03b 8c37 8a3d 9150 23bd d83b 2fbd
00000250: 6fa9 3db9 b31e 083b 5b33 f1bc a1e1 f9bc
00000260: 5df9 51bc 257a dc3c 075a 253c 0230 18bd
00000270: 1c86 40bc dd3f 6a3d f1d5 4b3c 8c56 1abd
00000280: 608f 16bc 88d1 30bc 3b0e a0bc 5bdc 11bd
00000290: d9f3 47bc e301 a5bd 61d8 7ab9 e9a1 dabb
000002a0: 2813 bcbb 9f47 dbbc 75cf d33c 43b6 abbb
000002b0: 55d3 34bc 832c 883b 3ffa b9bc 283d 883c
000002c0: abc0 eabb 6256 faba a382 dcbc 85d9 973a
000002d0: 72a8 703c af45 5cbd 4abf 35bd fd36 f6bb
000002e0: 1d2f 1fbc 1959 16bc ece6 3e3c e1a3 173d
000002f0: 0a73 303b ae08 fdbb 3f68 e0bc ee11 7c3c
00000300: c543 673d 39c3 ed3c 5a26 223d 1a9e 04bc
00000310: 293e 1dbd 335f c3bc 5066 b43c 7462 103d
00000320: ab65 a8bd ca3b fbbc 20aa 35bd ab23 9fbc
00000330: 11c9 ba3c 4ee1 70bc df7a 55bd 548a 36bd
00000340: 014a c2bb 77ea 36bd e3b5 29bd 861d 803c
00000350: 3341 e4bc a1da ce3b 146b f3bc bd4b 36bd
00000360: a6ac aa3a 6f13 abbb 2f8e e63b f42f 58bd
00000370: 0768 303a 372d 99bc 369e cfbc 4210 46bb
00000380: 7426 b33c d0aa 273c c79c 43bd fe4a 42bd
00000390: 792e 32bd 14f9 383c 8e31 3bbd c20a 7cbd
000003a0: 36d6 18bd fd62 14bc e207 52bd 462c 34bd
000003b0: 2ddf 99bc 8669 edbc d33c c03c 025a 073c
000003c0: f5c0 163c ad14 0c3c 79da abbd bbd6 c4bb
000003d0: 2102 f33c 1fa5 033d 9087 81bd 391a 99b9
000003e0: 73b1 2f3d 27b2 783d c494 873c 741f bf3c
000003f0: cbcf 9bbc 8555 b9bc 7d5c 1ebd 5f0a 7cbc

net.7.bias f4 [32]
-0.02305537 -0.0056297737 -0.021377267 -0.005749614 -0.015275348 -0.01889108 0.01815295 0.027151536
0.006861557 0.015513007 -0.022996623 0.0045792237 0.018732209 -0.012207611 -0.030485226 0.00047238672
-0.0033809715 0.035339147 -0.004023261 0.011523219 0.015012639 -0.0066116396 -0.015262335 0.0074266666
-0.019072168 0.030596178 -0.0025400473 0.01220182 0.0063788295 0.0027994511 0.00794187 -0.00454082
00000000: 9ede bcbc f779 b8bb 611f afbc 4267 bcbb
00000010: 7445 7abc 77c1 9abc 7fb5 943c e66c de3c
00000020: e9d6 e03b 442a 7e3c 6a63 bcbc 500d 963b
00000030: 4a74 993c 6f02 48bc 27bc f9bc acaa f739
00000040: 4a93 5dbb c8bf 103d 8fd5 83bb e2cb 3c3c
00000050: 92f7 753c 74a6 d8bb df0e 7abc 655b f33b
00000060: 3c3d 9cbc d6a4 fa3c ec76 26bb 24ea 473c
00000070: 8005 d13b ff76 373b 9e1e 023c 29cb 94bb

net.9.weight f4 [10, 32]
-0.44600415 -0.5177002 0.28918904 0.46123362 -0.23334028 0.30775028 0.0136351315 -0.36323336
0.1852523 -0.49570608 -0.12996925 -0.14648724 0.30454862 -0.32694787 -0.4726151 -0.2508435
-0.15062717 -0.42820114 -0.45659074 -0.03338918 0.04530216 0.30236915 -0.3397984 -0.2997967
0.20594545 0.23389436 -0.31882945 -0.29659796 0.17080992 -0.35804015 0.25538212 -0.44676444
-0.26944545 0.24876617 -0.24289791 -0.21884856 0.34161618 -0.3508302 -0.41230464 0.40825132
-0.34071627 -0.42403045 -0.23351876 -0.47239625 -0.23980959 0.3697228 -0.4681603 0.35182035
0.19577655 0.06863947 -0.27056947 0.43053463 -0.52803135 -0.16515426 0.3165303 0.12469132
-0.19443665 -0.44496092 0.23021331 -0.2000309 0.28712267 0.36852148 0.26893127 0.26413298
-0.20127463 -0.0015147487 0.39620385 -0.35342202 0.16345243 0.45925647 0.04995358 -0.3512377
0.31227738 0.27497584 -0.27639693 0.3953943 0.29658496 0.40569106 0.23338437 0.5117804
-0.29416966 -0.36780196 -0.43978202 -0.21548706 0.26387328 -0.33584464 0.21360268 -0.09957284
0.44875714 -0.5385826 0.3336745 -0.2548136 0.4477568 0.19901879 -0.21867903 0.38166517
-0.34574318 0.22433081 -0.3869088 -0.42852652 -0.3679603 -0.45495155 0.20022652 -0.21060506
-0.4093613 0.30721644 -0.26896763 0.29686525 0.28598478 -0.32876197 0.41854626 0.57441956
-0.14690083 0.16767992 0.53050655 -0.24479926 0.11001905 0.18629977 -0.20962988 0.35061327
-0.52502984 0.41345042 -0.120461956 0.32828933 0.38815954 0.26686284 -0.14181401 -0.010840402
-0.15348218 0.23711395 0.20129986 0.4128816 0.37661597 0.022399636 0.2181754 -0.2491175
0.34644026 0.21010391 0.42806336 -0.39682755 -0.4279557 0.33147418 -0.10303239 -0.17287004
0.4345586 0.16838504 -0.18290506 0.25916117 0.33477396 -0.2717586 0.25844368 -0.23514166
-0.30788338 0.33050194 0.14671586 0.43006644 -0.35751286 -0.6395411 -0.12335832 0.38015857
0.41630995 -0.460653 0.18411566 -0.41118166 -0.20123714 0.0967122 0.27833518 0.3305197
0.29218432 0.22979234 -0.2226168 -0.30463162 0.13273965 -0.03220321 -0.22183417 -0.26750976
-0.18141517 0.42631716 0.38392943 -0.17876685 -0.527626 -0.361091 -0.3524903 0.46556804
-0.105910465 0.33239633 -0.15436827 0.43034887 -0.43137544 0.39877743 0.15913887 -0.46129507
-0.13149546 -0.38796002 0.19162402 0.28945646 0.28826073 -0.41425475 0.22257645 0.060191568
0.17552336 0.17785744 0.58358556 0.30496475 0.22436976 0.3627724 -0.2575264 -0.21408679
-0.14145795 -0.38154724 0.43097717 0.16838177 -0.44390896 0.41331533 0.3525396 -0.3472218
0.07510949 -0.4018194 0.3255196 0.451258 -0.32676128 0.4301766 -0.24631907 -0.3699609
0.25473937 0.36644292 -0.33932692 -0.049893018 -0.11949721 0.34141177 0.17444703 0.40236712
-0.32792708 -6.575807e-05 -0.3507036 0.3570102 -0.29052967 -0.17286174 0.6029646 -0.25999328
0.57728356 0.28444996 -0.13768691 0.3621456 0.4085598 -0.5102483 -0.5254711 -0.5299973
-0.04345951 0.2393151 0.18661621 -0.3712407 0.45663002 -0.43570885 0.40938 -0.2079275
00000000: a85a e4be 0088 04bf 9610 943e d026 ec3e
00000010: c1f0 6ebe 7291 9d3e e365 5f3c b9f9 b9be
00000020: c7b2 3d3e 30cd fdbe a916 05be c000 16be
00000030: cced 9b3e b665 a7be 9bfa f1be 8f6e 80be
00000040: 023e 1abe 2e3d dbbe 43c6 e9be 18c3 08bd
00000050: c28e 393d 21d0 9a3e 0efa adbe f47e 99be
00000060: 5de3 523e 0182 6f3e 9d3d a3be b0db 97be
00000070: cce8 2e3e 0a51 b7be 72c1 823e 4fbe e4be
00000080: c1f4 89be 8fbc 7e3e 3bba 78be d619 60be
00000090: 51e8 ae3e 04a0 b3be 9819 d3be 5106 d13e
000000a0: 5d72 aebe 851a d9be 8b1f 6fbe ecdd f1be
000000b0: a590 75be 4f4c bd3e b5b2 efbe cc21 b43e
000000c0: a679 483e da92 8c3d 1588 8abe 096f dc3e
000000d0: 102d 07bf 331e 29be 4210 a23e 2a5e ff3d
000000e0: 671a 47be ebd1 e3be 0abd 6b3e e6d4 4cbe
000000f0: be01 933e d9ae bc3e 5cb1 893e 703c 873e
00000100: f01a 4ebe 888a c6ba 3bdb ca3e bbf3 b4be
00000110: 1360 273e aa23 eb3e 209c 4c3d 6ed5 b3be
00000120: d2e2 9f3e a2c9 8c3e e683 8dbe 1f71 ca3e
00000130: fcd9 973e bdb6 cf3e 50fc 6e3e 0a04 033f
00000140: 689d 96be 8a50 bcbe 1c2b e1be a4a8 5cbe
00000150: 661a 873e d4f3 abbe a9ba 5a3e d8ec cbbd
00000160: 7fc3 e53e 8de0 09bf 62d7 aa3e ee76 82be
00000170: 6140 e53e 95cb 4b3e 65ed 5fbe 9e69 c33e
00000180: 4005 b1be fab6 653e e918 c6be d467 dbbe
00000190: 4b65 bcbe 69ef e8be 2e08 4d3e daa8 57be
000001a0: ce97 d1be 794b 9d3e 20b6 89be b9fe 973e
000001b0: 996c 923e 7d53 a8be b24b d63e 290d 133f
000001c0: 2c6d 16be 49b4 2b3e 47cf 073f a8ac 7abe
000001d0: ab51 e13d 5ec5 3e3e 37a9 56be 9583 b33e
000001e0: 5b68 06bf c6af d33e c2b4 f6bd 8a15 a83e
000001f0: d9bc c63e 3fa2 883e b137 11be f19b 31bc
00000200: 6f2a 1dbe 00ce 723e 8d21 4e3e 3865 d33e
00000210: cfd3 c03e 717f b73c 5f69 5f3e a818 7fbe
00000220: 9e60 b13e 7b25 573e 1f2b db3e fb2c cbbe
00000230: 021d dbbe fcb6 a93e a502 d3bd d804 31be
00000240: 777e de3e 216d 2c3e 774b 3bbe c6b0 843e
00000250: 7e67 ab3e f123 8bbe bb52 843e fac8 70be
00000260: e4a2 9dbe 8d37 a93e af3c 163e ab31 dc3e
00000270: ed0b b7be f7b8 23bf 49a3 fcbd 25a4 c23e
00000280: 9426 d53e b6da ebbe d188 3c3e 6786 d2be
00000290: 1c11 4ebe 0c11 c63d f381 8e3e e139 a93e
000002a0: 2f99 953e af4e 6b3e a9f5 63be adf8 9bbe
000002b0: e7ec 073e 83e7 03bd 7f28 63be 0af7 88be
000002c0: e6c4 39be 3e46 da3e 6692 c43e a80e 37be
000002d0: 7f12 07bf ebe0 b8be 9c79 b4be ef5e ee3e
000002e0: 96e7 d8bd da2f aa3e b712 1ebe b056 dc3e
000002f0: 3edd dcbe 8e2c cc3e 4df5 223e de2e ecbe
00000300: bfa6 06be b2a2 c6be 1639 443e a333 943e
00000310: e996 933e 3319 d4be 15eb 633e 6f8b 763d
00000320: 65bc 333e 4320 363e dd65 153f 5724 9c3e
00000330: 30c1 653e 4ebd b93e 80da 83be 9139 5bbe
00000340: 5ada 10be 295a c3be 0aa9 dc3e 456c 2c3e
00000350: 0948 e3be 119e d33e 1280 b43e 0ec7 b1be
00000360: 01d3 993d 46bb cdbe 81aa a63e 4a0b e73e
00000370: 414d a7be 1b40 dc3e 113b 7cbe 846b bdbe
00000380: 336d 823e 689e bb3e 42bc adbe 9f5c 4cbd
00000390: f4ba f4bd 86cd ae3e 3ea2 323e 1003 ce3e
000003a0: 0fe6 a7be 98e7 89b8 6c8f b3be 0aca b63e
000003b0: 4ec0 94be ab02 31be e35b 1a3f d71d 85be
000003c0: dbc8 133f 6da3 913e ccfd 0cbe 266b b93e
000003d0: c02e d13e a29f 02bf 4685 06bf e7ad 07bf
000003e0: 9902 32bd 040f 753e 5218 3f3e 4313 bebe
000003f0: 69cb e93e 3b15 dfbe 419a d13e f2ea 54be

net.9.bias f4 [10]
-0.07064519 0.08801317 -0.07628028 0.18106577 0.019708939 -0.017067147 -0.04685321 0.022632012
-0.0060849986 -0.08248703
00000000: 6dae 90bd 4040 b43d d638 9cbd 4e69 393e
00000010: a474 a13c 67d0 8bbc 27e9 3fbd c566 b93c
00000020: ab64 c7bb f6ee a8bd
