models/stolen_watermarked_model_0.5.pt (torch, 107233 bytes, 8 tensors)

net.0.weight f4 [16, 1, 8, 8]
000000 3e e6 0f bc 10 49 21 3d 08 01 0c bd 13 5f c9 3b
       -0.008782921 0.03937632 -0.03418067 0.006145367
000010 d8 59 07 bd e6 2c 9c bc dc 34 a6 ba 77 e3 8b bd
       -0.033044666 -0.019064378 -0.0012680548 -0.06830495
000020 c5 59 97 3c 4f 15 16 3c 31 45 92 bb d6 9b c9 bc
       0.018475423 0.009160354 -0.0044638147 -0.024610441
000030 07 80 30 bc 32 22 73 bd 89 ee 9c bd 84 c1 b1 bd
       -0.010772712 -0.059358783 -0.076626845 -0.08679488
000040 78 8c 94 b9 1b a2 33 bc e6 cb 05 bb f2 db cb 3b
       -0.00028333417 -0.010963942 -0.0020415722 0.006221288
000050 ff e5 e3 bd 33 aa 9c bd 52 27 07 bd 08 90 8b bd
       -0.11127853 -0.076496504 -0.032996483 -0.06814581
000060 cf e8 8b 3d 2c 0d 0b 3b 03 f6 a8 3c 15 e0 ca 3b
       0.06831514 0.0021217568 0.02062512 0.0061912634
000070 fc 4a 22 bc d9 2b 9e bd 93 97 a2 bd 16 56 9f bd
       -0.009905573 -0.07723207 -0.07939067 -0.077800915
000080 76 7a ba 3d 09 1c 3c 3d 05 e5 f3 3c fb 7e a8 bd
       0.09105389 0.045925174 0.029772291 -0.082273446
000090 b5 0d e4 bc 6f a0 83 bd 63 db 90 bd 62 fa 80 3b
       -0.027838567 -0.06427085 -0.07073095 0.003936098
0000a0 5b e4 11 3d 2e bf 7f 3c b8 e3 54 bd 4f 67 c0 bc
       0.035618167 0.015609546 -0.051974982 -0.023486761
0000b0 ee f3 e4 bc 2b 3b 26 bd 2b 98 44 bd 17 7c f6 3c
       -0.027948346 -0.04058377 -0.04799668 0.030088468
0000c0 ab 69 8a bc 3d 27 8c 3d 0a e7 0e bd a6 5a af 3b
       -0.01689609 0.068434216 -0.034888305 0.0053513823
0000d0 ed 10 63 bc 8b 0a 1b 3d 99 45 19 3c ea 98 05 3d
       -0.013859016 0.03785185 0.009354972 0.032616533
0000e0 e2 77 10 3d c1 84 eb bb 70 d8 ab bd 4f 14 68 3c
       0.03527058 -0.0071874564 -0.083908916 0.014164998
0000f0 ca 9d b9 bd f9 53 7b bd 23 c4 0d bd 98 c3 51 3d
       -0.09063299 -0.06135938 -0.03461088 0.051211923
000100 d2 2a f3 bc 47 71 62 bc 3f fa 57 bd 59 58 82 bd
       -0.029683504 -0.013820953 -0.052728888 -0.06364507
000110 ea f9 d0 bd 8f 2d 32 bd f6 2a c7 bd c3 9f 58 bd
       -0.10203917 -0.04350048 -0.09724991 -0.052886736
000120 21 e2 11 3d f5 2c 0c 3d bb df af 3c 1b c7 18 bd
       0.035616044 0.034222562 0.021468988 -0.037299257
000130 77 7b d9 3c b9 6c 82 bd 37 18 b7 3c 0f aa aa bd
       0.02654813 -0.063683935 0.022350414 -0.08333217
000140 ed cb e5 3c 45 bd 5a 3d 70 06 a6 bb a3 6d d0 bd
       0.028051341 0.053403158 -0.0050666854 -0.101771615
000150 e8 13 f3 bd 10 f1 cc bd 71 01 a5 bc c5 fa a8 bd
       -0.11869031 -0.100069165 -0.020142289 -0.082509555
000160 dd 9d a7 3d 4e 77 bd 3c ad 8c fe bc 6e 81 cf 3c
       0.08184407 0.023128178 -0.031072939 0.025330272
000170 76 50 89 bd dd 0c 47 bc 79 f3 47 3d bc bb 10 bd
       -0.067048 -0.012149063 0.048816178 -0.035335287
000180 92 1c ee bc 3f 5a 5e 3a c0 88 2b bd c9 93 9e 3c
       -0.029066358 0.00084820756 -0.04187846 0.019357579
000190 0d 2e 9c bd f0 de 51 bd f0 0e af bd 4a 06 9b 3c
       -0.07625971 -0.051238 -0.08547771 0.018923897
0001a0 a8 4a d8 39 8e 92 f0 3d 13 df 34 3c 3f b2 9f 3c
       0.00041254354 0.11746703 0.011039513 0.019494174
0001b0 e3 b3 4e bd d0 f6 80 3d 05 6e 1d 3d c3 84 c3 3a
       -0.050464522 0.06297076 0.038435 0.0014916885
0001c0 a0 c7 19 3e 53 dd d8 3d 4c 96 35 3d 51 e4 a5 3d
       0.15017557 0.10589089 0.044332787 0.081001885
0001d0 80 3a 17 bd ad f9 e4 bc 9b 74 34 bd 77 a1 86 3d
       -0.036921024 -0.027951086 -0.044056516 0.06573766
0001e0 1b 83 30 3e af 1f 64 3d a5 0f 8c 3a b3 62 e4 3d
       0.17237513 0.05569428 0.0010685815 0.11151638
0001f0 e0 f6 3f 3d b5 64 4e 3d 70 e7 0e 3d 0f 4f f6 3c
       0.046866298 0.05038901 0.034888685 0.030066995
000200 4e 9c c7 bc 2f 10 64 3d ee 9f c7 3d 76 1f a2 3d
       -0.024366524 0.055679496 0.09747301 0.07916157
000210 35 70 a6 bd e2 7d e2 bd 0e 66 12 be d1 1d d6 bc
       -0.081268705 -0.110591665 -0.14296743 -0.026137264
000220 da 3c b2 bb 96 93 f2 3d 05 b6 fa 3c f5 96 eb 3d
       -0.005439383 0.11844556 0.030604372 0.11503402
000230 04 44 94 bd 99 4e 53 bd e6 34 bc bd 02 3a 42 bd
       -0.072395355 -0.05158863 -0.09189777 -0.0474186
000240 82 8c db 3c 99 a9 cb 3d 4e 30 ac 3d 75 9a db 3c
       0.026800398 0.099444576 0.08407651 0.02680705
000250 9b bc 9b bd e2 77 f2 bd 67 68 aa bd 1f 2d 72 3d
       -0.07604333 -0.11839272 -0.083206944 0.059125062
000260 fb 22 b7 bd 8a c1 8e 3d ca 95 89 bc ab 8d ed 3c
       -0.08942219 0.069705084 -0.016795058 0.028998217
000270 35 06 d5 bc 77 6d 3c bc 75 7f bc 3c 1f 29 d4 3d
       -0.026003936 -0.011500708 0.023009995 0.10359406
000280 2c 4f d1 3c 55 75 d9 3c 69 cd 17 3e 57 86 07 3e
       0.025550447 0.026545206 0.14824452 0.1323484
000290 0b fb 92 3d c5 2c 88 3d 18 27 dd 3d 7b e9 de 3d
       0.07176789 0.06649164 0.10798472 0.108843766
0002a0 56 7a 2a 3b ad 62 be 3d fe 6f 0d 3e fa 61 22 3a
       0.002601286 0.09296165 0.13812253 0.0006194409
0002b0 24 3c 57 3d 9c 17 c9 bc e9 12 e9 bc 01 61 7a bd
       0.05254759 -0.02454739 -0.0284514 -0.061127666
0002c0 5f 20 12 3e 61 0b d0 3d a8 1c c1 3d 9a bf 1c bd
       0.14270161 0.1015842 0.09429294 -0.038268663
0002d0 13 68 99 3c 76 17 2b bd ad 9c 3e bd ab d8 5f 3c
       0.018726384 -0.04177042 -0.046536136 0.0136624975
0002e0 33 a0 c9 3d d5 b5 d5 bc 5a 14 50 bd 52 00 94 bb
       0.09845009 -0.02608768 -0.05080066 -0.0045166397
0002f0 bb e2 7f bd 95 7c 5b bc 85 dc c4 bd d2 ae 77 3c
       -0.062472086 -0.013396402 -0.09612373 0.015117364
000300 aa 9a 5c bd 79 f2 00 bc 55 78 82 bd 2f 71 8b bd
       -0.053858437 -0.00787031 -0.06370608 -0.068086974
000310 12 69 6a bd 42 13 89 3c 69 6a 91 3c c8 ca 24 3d
       -0.05722911 0.016732816 0.017750936 0.04023245
000320 cf 1c ac bd 02 81 32 bd 6a bd e1 bd 60 00 a5 bd
       -0.08403932 -0.043580063 -0.11022456 -0.08056712
000330 62 f8 cb 3c 75 d7 71 bc 53 3d 34 bd 05 69 84 bc
       0.024898712 -0.014760842 -0.044003796 -0.016163358
000340 35 ad 2e 3c bd 0b cb bd fa 07 8a bd 54 91 5a bd
       0.010661413 -0.09914348 -0.06739803 -0.053361252
000350 f2 63 1d 3d 09 1a b5 3b a6 f6 b3 bc 41 b7 5e 3c
       0.038425393 0.0055267853 -0.021968197 0.013593496
000360 2d 4d 93 bd 09 ce b6 3c 97 3b dd 3c 23 39 17 3b
       -0.071924545 0.022315042 0.027005954 0.0023074828
000370 93 ea 58 3d 2b 3d db bc 4f 6b 5c 3d e5 66 aa 3c
       0.052958082 -0.026762566 0.053813275 0.020801017
000380 f5 5c 3c 3d 5f d6 a8 bc 18 d5 b7 3c f9 a9 f9 bc
       0.04598709 -0.020610033 0.022440478 -0.030476557
000390 df e4 fc bc 5b d4 04 bd 8a 39 0e 3d 08 aa 59 bc
       -0.030870853 -0.03242908 0.034722842 -0.0132851675
0003a0 d4 19 9c 3c 9f 44 04 bc cb d3 69 bd 36 68 ac bc
       0.019055285 -0.008073001 -0.057086747 -0.021045785
0003b0 88 f2 0f bd f0 3c ac 3a 8b 4f 8a 3b 95 f2 df 3c
       -0.035143405 0.0013140719 0.004220908 0.027337352
0003c0 02 f6 89 bc 10 0f 60 bd eb 8a e9 3b 59 20 de 3b
       -0.016840938 -0.054701865 0.007127156 0.0067787585
0003d0 c4 bd ca bd 6d 2a 77 bd 64 4e d7 3b 3f 22 22 bd
       -0.09899476 -0.060343195 0.006570624 -0.03958344
0003e0 4c 1b 2a bc 75 ca c8 bd 59 85 94 bd 3e 59 8a bd
       -0.010382485 -0.098042406 -0.072519965 -0.06755303
0003f0 ec 3f 6a bd 84 b2 f5 3c 47 30 8a bd 5d 20 02 bd
       -0.057189867 0.02999235 -0.067474894 -0.031769145

net.0.bias f4 [16]
000000 1c ba dd 3c 43 44 59 bd 42 1e 4d 3d c1 80 18 3d
       0.027066283 -0.053043615 0.050077684 0.037232164
000010 d8 55 24 3d 68 b4 fe bd 36 f2 73 3c 9a 6e ea bd
       0.04012093 -0.124367535 0.014889291 -0.11446877
000020 40 ab 2e 3d 02 fe af bd e0 e4 d8 3b fa 84 0f be
       0.042643785 -0.0859337 0.006619081 -0.1401557
000030 cf 0f c2 bd 49 b6 f6 bc 3b cc 8d bd da c9 97 bd
       -0.094756715 -0.030116217 -0.069237195 -0.07411547

net.3.weight f4 [32, 16, 4, 4]
000000 c8 d4 ed bc 63 51 8d bc 63 72 98 bc 24 e8 da bb
       -0.029032126 -0.017250722 -0.018609231 -0.0066805054
000010 00 93 70 3c 4b 6b e5 bc 5c 00 86 bc 4a bd 3d 3a
       0.014683485 -0.028005263 -0.016357593 0.0007237984
000020 57 16 7e 3a 1e b9 e8 3c 84 ef a0 bb d4 eb c9 3c
       0.000969266 0.028408583 -0.004911365 0.024648584
000030 63 a6 a5 3b 73 98 a2 bc 3b 1f 90 bc e1 84 74 bc
       0.0050552352 -0.019848084 -0.017593017 -0.014924259
000040 89 23 99 3c 0d c9 b2 bc e1 db 8b bc f8 09 82 bd
       0.018693702 -0.021824384 -0.01707262 -0.06349558
000050 5e bd ee bb f5 8c bd bc 33 cd f3 bb 23 df af bc
       -0.007285758 -0.023138503 -0.007440233 -0.021468705
000060 d6 4e c8 3c bb fb 1f 3d 56 fe 35 3d 52 2f ff 3c
       0.024451654 0.03905843 0.044432007 0.031150494
000070 88 ec 15 3d 49 f5 0c 3b 0f 10 31 3d d3 63 24 3d
       0.036602527 0.0021508506 0.043228205 0.040134262
000080 f9 25 01 3d b2 45 cb bb 99 a8 01 bd 22 29 56 bb
       0.031530354 -0.0062033767 -0.031654928 -0.0032678326
000090 6a 87 b2 3c dc 83 02 bd f6 a0 70 bd 86 9f 9f bd
       0.021793086 -0.031864032 -0.058747254 -0.077940986
0000a0 3f 78 57 bc 73 77 0a 3d 47 db 06 bc 54 39 8b bd
       -0.0131512275 0.033805322 -0.008230991 -0.06798044
0000b0 78 75 d5 3c c4 04 5c 3c 6b c6 f6 bc 16 77 12 3c
       0.02605699 0.013428871 -0.03012391 0.008939525
0000c0 79 d5 ae bc 31 4e db 3c dc 1e ff bc f4 8a e3 3c
       -0.021342026 0.026770683 -0.031142645 0.027776219
0000d0 63 ac 96 bc 54 1f ac bb 20 49 b8 3c d1 88 9e 3c
       -0.018392747 -0.005252758 0.022495806 0.019352349
0000e0 cc e2 f9 ba b7 d8 b3 bc cc cf e5 3c c5 73 8b 3b
       -0.0019064783 -0.021953924 0.028053187 0.004255744
0000f0 64 8a 8e bb 4d 84 0d bd 91 74 0b bd 8b 19 8d 3c
       -0.0043499935 -0.03455 -0.034046713 0.017224094
000100 a7 56 10 3b e3 6e f0 bc a3 d9 14 3d e9 9c b6 bc
       0.0022024305 -0.02934975 0.036340367 -0.022291617
000110 e6 6a 9e bb 87 ab 33 bd c1 98 68 3c 8c a9 85 bc
       -0.0048345206 -0.043864753 0.014196576 -0.016316198
000120 58 ec 2a bd d5 0e 0d bd 2c 91 30 3c ce 5e 7d bb
       -0.0417293 -0.034437973 0.010776799 -0.0038661244
000130 83 29 c5 bc 90 f4 4b 3c ee 9f 85 3c 58 28 49 3c
       -0.024067646 0.012448445 0.016311612 0.012277685
000140 34 07 ea bb c5 6d 56 bd fc 18 04 bc 94 08 c9 bc
       -0.007141972 -0.052350778 -0.008062597 -0.024540223
000150 a9 dc 9f bc fc bf 46 3d 26 98 a4 3c 5e a0 c4 3b
       -0.019514399 0.048522934 0.020092081 0.0060005626
000160 12 1e 43 3d f1 7d 96 3c b8 a7 41 3d 5a a0 7c 3d
       0.0476361 0.0183706 0.04727909 0.06167636
000170 81 28 b8 bc 60 a0 95 3c fc 38 e9 3c 8c 76 f9 3a
       -0.022480251 0.01826495 0.028469555 0.0019032522
000180 13 b2 e3 bb 76 8e 38 3b b2 d9 d1 3c 7c 3c 37 b9
       -0.0069487183 0.0028161085 0.0256165 -0.00017474772
000190 2b 99 81 3c 14 65 4d 3c 79 56 d2 bc 3f 16 40 3c
       0.015820106 0.012536306 -0.025675999 0.011724054
0001a0 34 ab 09 3c d4 4b 10 bd 64 93 86 bd 09 1e ef bc
       0.008402634 -0.035228565 -0.06571081 -0.029189127
0001b0 2f a2 a8 3c 0a d5 61 bd 4e 29 8b bd 16 e5 2c 3c
       0.020585148 -0.05513481 -0.067949876 0.010552665
0001c0 56 d5 ee bc 6e 7f f7 3c 07 5a 4b 3c bf f1 11 3c
       -0.02915446 0.03021213 0.012411601 0.008907734
0001d0 6a 82 49 bd ac d0 1e bc e1 ac fa 3c 60 f8 14 3c
       -0.04919664 -0.009693306 0.030600013 0.00909242
0001e0 98 3a 84 bc 56 b2 b1 bc 84 0d 9c bc b2 1e 5f bc
       -0.01614122 -0.021691483 -0.019049414 -0.013618158
0001f0 d0 b5 50 bb ad b7 67 3c 46 fc f9 b8 99 13 25 bc
       -0.003184665 0.014142913 -0.00011920235 -0.010075473
000200 55 b6 50 3c 91 bb 87 3c 38 05 23 bd 04 52 36 bc
       0.012738784 0.01656893 -0.0397999 -0.0111279525
000210 ab 7e 19 3c 63 10 5b bb 63 a9 d1 bc 96 74 8a 3c
       0.009368579 -0.0033426515 -0.025593465 0.016901296
000220 a4 e4 2e bd 83 83 2e 3c b1 33 bb 3b 42 08 43 3c
       -0.042698517 0.010651472 0.005712949 0.011903824
000230 1c 69 e7 bc fc 4c 3a bd 7a c6 9a bc 3e ce 9d bc
       -0.028248362 -0.045483574 -0.01889347 -0.019263383
000240 7d 69 64 bc 8a 46 b2 bc 7f 12 b1 ba 99 ef 2c 3c
       -0.013941166 -0.021762151 -0.0013509541 0.010555171
000250 1f e3 5b bc f4 ab df bc b6 92 bd bc 79 c3 c5 bc
       -0.013420849 -0.027303673 -0.023141246 -0.02414106
000260 9a 3d ee bc c1 b6 6b bd 22 b7 88 bc d0 ff bd 3b
       -0.029082108 -0.057547335 -0.016688887 0.0057983175
000270 41 21 b7 bb 4c 37 93 bc 8e ad f8 3c 7d f3 5b 3d
       -0.005588681 -0.017970704 0.030356195 0.053699005
000280 10 d8 6a bd a4 e2 e6 bc 8a 62 94 3c 85 40 31 3d
       -0.05733496 -0.028184243 0.018113393 0.04327442
000290 33 f1 43 bd 6b 3c 04 bd d2 a9 d8 bc 56 f2 03 3d
       -0.047837447 -0.03228418 -0.026448164 0.03221353
0002a0 ed a4 4d bb d5 8e 33 bb bb 35 5c bd 83 91 70 bb
       -0.003137882 -0.0027398367 -0.05376218 -0.0036707825
0002b0 0a 69 9f bb 3d e7 f0 bc 66 d1 13 bc ce 66 43 bd
       -0.0048648166 -0.029407138 -0.009022092 -0.047705464
0002c0 61 e8 e8 bc 7d ca 48 bd 6c d6 cc bb 61 eb d6 bc
       -0.02843112 -0.049021233 -0.006251147 -0.026235284
0002d0 32 8c 24 bc a7 2a 5e bb cb 56 7b bc 07 de 66 bd
       -0.010043191 -0.0033899934 -0.015340517 -0.056364086
0002e0 7b 96 d8 bc 80 80 4f 3c 8a f0 0d 3c 5f e4 d0 3b
       -0.026438942 0.012664914 0.008663306 0.00637488
0002f0 45 57 ca 3c da 69 0a bc 5b c4 b5 bc 68 cd 81 bb
       0.024699816 -0.008448089 -0.022188356 -0.003961254
000300 33 31 80 3c 3d 72 d3 bc b8 02 88 3c 8f b5 09 3d
       0.01564846 -0.025811309 0.016602859 0.033620413
000310 cb d4 dc 3a 9c 64 2c 3b f9 68 61 bc d3 6f f3 3c
       0.0016848085 0.0026305085 -0.013757938 0.029716408
000320 63 ff 29 3d 71 46 f9 3c 38 07 79 3b 59 12 69 bc
       0.04150332 0.030429097 0.0037998687 -0.014225566
000330 65 c1 c2 3c 9e 1e 43 3b 40 50 15 bc 10 30 26 3c
       0.023773858 0.0029772888 -0.009113371 0.010143295
000340 27 00 c9 3a 57 ee 82 3b de 81 ac bb 28 d3 02 bd
       0.0015335128 0.0039956975 -0.005264505 -0.031939656
000350 cf 80 0e 3d 85 dd 9d 3c a5 06 67 bb 3a 19 6e bb
       0.03479081 0.019270668 -0.0035251763 -0.0036330954
000360 de 26 ec 3b bb c6 64 3b d7 48 29 3c 6e 43 9e bb
       0.007206782 0.0034908492 0.010332308 -0.0048298156
000370 ce e1 5b 3c c5 93 45 3c da 5a 51 bb 90 91 ab bc
       0.013420535 0.012059157 -0.003194502 -0.020943433
000380 cf bc b0 3c f6 f3 ab 3c 3e 42 56 bc 35 10 96 3c
       0.021574406 0.020990353 -0.013077317 0.018318275
000390 09 6a 34 3c 7a 4c 1e 3c 33 c9 76 bd 14 ea 22 3c
       0.011011609 0.009661788 -0.060250472 0.009943504
0003a0 03 90 91 bb c7 13 14 bd 1d e3 83 bd d9 07 3c 3b
       -0.0044422164 -0.036151674 -0.06439803 0.00286912
0003b0 aa e1 db bc 31 7d 19 bc a2 7b cd bc 6b 46 8d 3b
       -0.026841003 -0.009368227 -0.025083367 0.004311373
0003c0 34 75 27 3b e1 cc 62 bd a0 90 de bc 7a 65 85 bd
       0.0025552036 -0.05537117 -0.027168572 -0.06513496
0003d0 fc b5 bf 3b e6 ff d9 3b 62 d4 a5 3c b4 dc bd ba
       0.0058505516 0.00665282 0.020242874 -0.001448533
0003e0 b6 58 4d 3c 84 04 11 3d 6a bc d5 bb b0 93 54 3c
       0.012533357 0.035404697 -0.006522705 0.012974665
0003f0 bb 1a 2d bc 86 4d 8f 3c 68 d0 04 3d 82 d9 92 3d
       -0.010565455 0.01749302 0.032425314 0.071703926

net.3.bias f4 [32]
000000 c9 26 04 bd c5 05 2a bd 94 8b 27 bd 14 20 36 bc
       -0.03226355 -0.04150941 -0.040904596 -0.011116046
000010 7b 97 34 3a d6 fd 87 3c 37 d2 11 3c 9f 69 70 bc
       0.00068890274 0.01660053 0.008900217 -0.0146736195
000020 1f 71 c7 bc 27 05 65 bc a0 af 3e bc f8 35 55 bb
       -0.024345933 -0.013978279 -0.011638552 -0.0032533389
000030 0d 07 02 bd 6d ce ad bc d8 97 8d bc 27 f6 e6 bc
       -0.031745005 -0.021216596 -0.017284319 -0.028193546
000040 99 e0 e0 bb 5a b1 97 bc b3 28 37 bd 0a 40 52 bb
       -0.0068627116 -0.018517185 -0.04471655 -0.0032081627
000050 e0 05 02 bd 50 df 3f bc 29 51 a7 bb 05 e4 86 bc
       -0.031743884 -0.011710957 -0.0051061106 -0.01646615
000060 f1 55 59 bc e6 d3 66 bd 85 a1 bb b9 41 39 a3 3b
       -0.013265119 -0.056354426 -0.0003578776 0.0049811904
000070 65 20 57 3c 07 01 f5 bb 80 81 07 bd f7 95 ea bb
       0.013130282 -0.007476929 -0.033082485 -0.0071589905

net.7.weight f4 [32, 512]
000000 9f 3c db bc df 50 25 3c 8e f4 04 3d a9 99 9e 3c
       -0.026762305 0.010090082 0.032459788 0.01936038
000010 17 16 03 3c 34 bb c4 3c bc 30 78 3d c0 9f ab bc
       0.008000872 0.024015047 0.06059335 -0.020950198
000020 fb 90 e7 bc bb 9e ac bb e1 9e 8a bc 16 cb a0 3c
       -0.028267374 -0.0052679456 -0.016921462 0.019628089
000030 55 3f c7 bc 59 45 fd bc f3 fc 08 3c 84 ba e0 3a
       -0.024322191 -0.030916857 0.008361089 0.001714543
000040 55 0a bb 3c bf 13 9e bc 41 61 df bb 32 dc 28 3c
       0.022832075 -0.019296525 -0.0068170135 0.010306405
000050 05 0e 51 3d 53 50 f7 3a 39 8a bf bc 4e 3f 65 3b
       0.05103876 0.0018868543 -0.02338134 0.003498036
000060 fc b8 fa 3c 5a 06 a6 bc d0 99 1f bd 95 c2 89 3c
       0.030605786 -0.0202667 -0.038965046 0.016816417
000070 ac 07 ae 3c 70 3e 5b 37 f8 9e 91 3b 04 10 ee 3c
       0.021243893 1.3067955e-05 0.0044439994 0.029060371
000080 5a 3f 14 3a 97 00 a0 bc e9 8f 90 bb 9f e0 c7 3b
       0.0005655192 -0.019531531 -0.0044116867 0.006099775
000090 0c 8d 07 3c 8d 83 5f bb 84 db 09 3c 43 0f 9e bc
       0.008273374 -0.003410551 0.008414153 -0.019294387
0000a0 d0 4a 1b 3c bc a8 96 bc 23 fa 5c 3c 22 4d 2b 3c
       0.009478286 -0.018391006 0.013487372 0.010455402
0000b0 e4 30 57 bb 2c e7 6a bc 8b 1c 9a bc 7e 08 c2 3b
       -0.0032835538 -0.014337342 -0.018812438 0.0059214225
0000c0 7a 8b 68 bd 0a f3 b1 bb 9f 7f 0a bd 74 84 d4 bc
       -0.05677364 -0.005430584 -0.033813115 -0.025942065
0000d0 28 e1 8d 3b de 44 ad 3c 24 93 8b 3c 5a fd 0b 3d
       0.004329819 0.021151002 0.017037936 0.03417716
0000e0 60 03 1d bc ce fb 1c 3d 34 86 99 3b 2c 8a 8b ba
       -0.009583324 0.038326077 0.0046851877 -0.0010646037
0000f0 a8 cd 1d bc fb 02 28 bb b5 89 37 3c 32 bb ce 3b
       -0.009631552 -0.0025636542 0.0112022655 0.0063089365
000100 69 0c 2f bd d8 0f 41 3c a8 5b 99 bc 90 42 b4 bc
       -0.042736445 0.011783563 -0.018720463 -0.022004396
000110 7e c0 f8 3b b5 95 9a bb c7 8f 89 3c 4a 2c 4e 3b
       0.007591306 -0.0047175535 0.016792191 0.0031459504
000120 46 ab e6 3b 12 3d 30 3d 1e d9 c8 3c 23 d8 69 bc
       0.0070394604 0.04302699 0.024517592 -0.014272722
000130 87 07 d7 ba c6 5b 95 3c ea 6d 67 3d 26 db 1f 3d
       -0.0016405442 0.018232238 0.056501307 0.039027356
000140 a6 3b 7e 3c c1 31 98 bc ea 47 00 3d 4c 7b 83 bc
       0.015517151 -0.018578412 0.031318583 -0.016050003
000150 93 1a 33 3a d7 96 80 3c 6f 5b 64 bc 3f fe b1 3c
       0.0006832268 0.015696926 -0.013937815 0.02172768
000160 98 69 b8 b9 d0 ed d3 bc d3 da 6c bd d3 55 b1 bc
       -0.00035173888 -0.025870234 -0.057825875 -0.02164737
000170 da 0c 3b bc 76 c0 0c bd ca 2b 0c bd 1f f8 7c 3c
       -0.011416638 -0.034363233 -0.034221448 0.015440016
000180 a9 af 91 bc c3 55 0f 3c 76 dd 7e bc 06 0e ff bc
       -0.017783957 0.0087484745 -0.01555573 -0.031134617
000190 cb 19 de bc 11 56 ce bc 7f 4c 84 3c 84 4f 71 bb
       -0.027111908 -0.025187524 0.016149757 -0.0036821077
0001a0 47 2f da bc 9d 54 2d bd 5e c2 06 bd a9 0c 48 3b
       -0.026633872 -0.04231702 -0.032900207 0.0030525124
0001b0 c0 1c 47 bd e0 1b 44 bd 64 08 96 bb 9b fa 44 bc
       -0.048611403 -0.047878146 -0.004578637 -0.01202264
0001c0 89 15 b3 bb 93 be f4 bc a4 37 ba bb e5 2a a2 ba
       -0.0054652137 -0.02987603 -0.0056829024 -0.0012372403
0001d0 ad 5a 51 3a e0 9f d4 bc 2b 29 f5 bc 55 99 3e bd
       0.0007986229 -0.02595514 -0.029926857 -0.046532948
0001e0 c9 ce db bc 81 96 d0 bc a4 ea ad bb 5f 37 7c ba
       -0.026832001 -0.02546239 -0.0053075124 -0.0009621288
0001f0 f6 8b 47 bd 79 d8 41 bd 6c 03 0e bc 47 5d 8e 3c
       -0.04871746 -0.047325585 -0.008667808 0.017378462
000200 bb fd 1f 3d dc 16 b3 3c ed af fb 3b 16 f7 97 3c
       0.039060336 0.021861486 0.007680884 0.018550437
000210 9a 17 2d 3c a8 96 1e 3d 82 d5 cd 3c 98 de 79 b9
       0.010564709 0.038717896 0.025126223 -0.00023829413
000220 89 f2 b6 3c 08 6a dc 3c cd 5f 0d 3d 6b 48 63 3c
       0.022332447 0.026906028 0.03451519 0.013872246
000230 4c 86 ac 3c bb 80 85 3d b6 54 00 3d 32 f0 db bc
       0.021060131 0.06518694 0.031330787 -0.026847932
000240 ca 97 4f 3d 9b a9 20 3d 59 68 2d bc cc 3d a9 bc
       0.050681867 0.03922425 -0.01058396 -0.02065935
000250 a6 4f 36 3d 12 3c ae 3c 6c 33 ec bc 4d db bd bc
       0.044509552 0.021268878 -0.028833114 -0.02317586
000260 ba cc 5c 3d 66 9c 72 3c 1c 62 84 bc cb 6f 1c 3c
       0.05390618 0.014807796 -0.016160063 0.009548138
000270 af d0 19 3d 47 50 3d 3d a8 a9 70 bc c7 41 56 3c
       0.03755253 0.046219137 -0.014688887 0.013077206
000280 68 08 1c bc dc 18 ce bb b0 b7 3e 3c 44 32 2e bd
       -0.009523489 -0.0062895846 0.011640474 -0.042528406
000290 30 b4 92 3b 35 0f 47 bb 17 a3 9c bc 41 71 33 bd
       0.0044770464 -0.0030374054 -0.019120736 -0.04380918
0002a0 25 24 19 bd ea 98 72 ba e2 85 9d bc 17 6e d6 3c
       -0.037387986 -0.00092543534 -0.01922888 0.026175542
0002b0 a4 66 c6 bc ca 85 08 bd f4 b6 d4 bc 08 7e 9d bc
       -0.024218865 -0.033330716 -0.025966145 -0.019225135
0002c0 6c 62 0c 3c ca 1d 74 bc 94 21 17 39 73 bb b5 bc
       0.0085683875 -0.01489968 0.00014412991 -0.02218411
0002d0 ff 5c 3d 3c 1d 71 30 3b f2 3c 98 bc 1f d4 14 bc
       0.0115578165 0.002692289 -0.018583748 -0.009083777
0002e0 37 e3 df bc d7 bc 2a bc 5a 39 d2 bc 59 c4 c0 bc
       -0.027330024 -0.0104209995 -0.025662113 -0.023531126
0002f0 e4 fc 4f bc be 09 03 bd b4 e2 2e bc 8f c8 22 bb
       -0.012694571 -0.031991713 -0.010674167 -0.002483878
000300 66 e6 a2 3c a5 05 97 3c 17 f8 12 3b 61 f0 76 bd
       0.019885253 0.018435309 0.0022425705 -0.060287837
000310 82 32 9e 3b 38 ef 0c bb 61 f8 c1 3b f2 32 d4 3b
       0.0048277983 -0.002150489 0.0059195017 0.0064757997
000320 c2 b8 1d bc 0e d2 2a 3c 65 85 a2 bb f5 ca 44 3d
       -0.009626569 0.0104260575 -0.0049597495 0.048045117
000330 bb b7 57 ba ef df 9c 3c a6 eb de 3b ee f1 07 bc
       -0.0008228977 0.019149749 0.006802994 -0.008297427
000340 46 f4 84 3c 27 7f 6f 3b 69 d7 8c 3c 6f e6 0a bd
       0.01622976 0.0036544295 0.01719256 -0.033911165
000350 cc e6 7d 3c f6 85 ce 3c bb da fe 3c c1 5e f2 bc
       0.015496921 0.025210362 0.031110158 -0.029586198
000360 f4 a3 06 3d 57 65 37 3b f9 03 46 bc 8c b9 34 bd
       0.0328712 0.0027983987 -0.012085908 -0.044122264
000370 fc 01 a4 bc 54 ed f3 bc 5d 90 68 bb 7f 08 bb bc
       -0.020020477 -0.029776253 -0.0035486438 -0.0228312
000380 18 08 4f bd 4f 17 9b bc bf c3 22 bd c6 b4 05 bd
       -0.05054483 -0.018932013 -0.03973746 -0.032643102
000390 3a a5 6b ba 8d 79 09 ba 7c 48 08 3d 24 60 0f 3d
       -0.0008989159 -0.0005244248 0.03327225 0.035003796
0003a0 d5 43 20 3c ea d0 eb 3c 3d 56 c7 3c 5d 97 56 bc
       0.009781797 0.028786141 0.024333114 -0.013097611
0003b0 43 4a 83 bd a6 2a e3 bb 3a d4 0a 3d 75 1b 0b bc
       -0.06410649 -0.0069325743 0.0338938 -0.008490433
0003c0 14 47 05 3d 32 91 49 bc 0c b1 4e bd 4c 25 f1 3c
       0.03253849 -0.012302684 -0.050461814 0.02943673
0003d0 5c 39 fa 3b 68 7e ed bc 85 73 77 bd 47 98 1a 3c
       0.0076362323 -0.02899094 -0.060412902 0.00943572
0003e0 7e 8f 02 bd c3 54 c1 bc 86 f6 0b 3c d1 48 09 bc
       -0.031875126 -0.023599988 0.0085426625 -0.008379177
0003f0 8d 6d e3 3c ec 8f 14 bd dc 7b 5d bc bc 81 27 bd
       0.027762199 -0.036270067 -0.0135183 -0.04089521

net.7.bias f4 [32]
000000 1e e3 33 3c 52 8c a9 bc 62 94 0a 3d 4b 3d 3f 3c
       0.010979442 -0.020696793 0.033832915 0.011672328
000010 7e 5f 3c bd bd 46 b3 bc c4 6f 87 3c 38 67 f6 3c
       -0.045989506 -0.021884317 0.016532786 0.030078515
000020 6e c8 78 bc 46 01 2e 3b 34 a7 bf 3c 68 93 98 bc
       -0.015184505 0.0026551052 0.023395158 -0.018624976
000030 c4 3a a9 3b 06 f3 d9 3b 58 91 93 bc 2c 54 06 3c
       0.005164476 0.006651285 -0.018013641 0.008198779
000040 fd e0 f9 bc 48 cb e4 bb 5c 43 85 3c fd 57 12 3a
       -0.03050279 -0.006982241 0.016267471 0.0005582569
000050 a1 da e6 bb a2 58 ae bc ef ed 94 bc 68 28 bf 3a
       -0.0070451056 -0.021282498 -0.018179862 0.0014584186
000060 ae 6d 2e 3c 1d 3a c7 bc 9e a0 ae 3c 30 21 ad bb
       0.010646267 -0.024319703 0.021316823 -0.0052834973
000070 81 5f 0f 3c 29 71 a9 3c 64 81 20 3c 93 42 0d 3b
       0.008750797 0.020683842 0.009796474 0.0021554574

net.9.weight f4 [10, 32]
000000 8a 18 ad 3e b4 56 aa 3e 34 b9 9b 3e 4b 0f b1 be
       0.33807784 0.33269274 0.30414736 -0.3458198
000010 25 37 9e be 2d 24 8a be 89 eb 6d 3e 5f 92 bc 3e
       -0.30901447 -0.26980725 0.23234381 0.36830422
000020 fd c0 9c be 45 5a cf be e9 42 54 3e 71 20 9c be
       -0.30615988 -0.40498558 0.20728649 -0.304935
000030 39 9f b3 3e 1f 58 48 bd f0 fc ae 3e 9b 36 31 3e
       0.35082415 -0.048912164 0.3417735 0.17305987
000040 0a c1 c3 3e db ba 8a 3d 08 0a 0a 3e c9 ca a5 be
       0.38233215 0.06773921 0.13480389 -0.32381275
000050 73 43 ca be ea bc 83 be ab 38 30 be 15 91 bd 3e
       -0.39504585 -0.25730067 -0.17209117 0.3702475
000060 b7 16 34 3e bc b6 9b be db 8e a0 be 00 da d3 be
       0.1758679 -0.30412853 -0.3135899 -0.41377258
000070 b6 0f 89 3e 9c de f7 3d b8 1f 91 3e 21 63 ac be
       0.267698 0.12103006 0.28344512 -0.3366938
000080 44 b1 95 be 16 a4 98 be 41 0e 5a 3e d1 d2 35 3e
       -0.29236805 -0.29812688 0.212945 0.17756201
000090 01 64 a9 be 0a db 2d be db 77 70 3e a5 84 52 be
       -0.3308411 -0.16978088 0.23483221 -0.20558412
0000a0 ad 35 f5 3e 8d 93 a3 be 05 fb 8a be 9b 66 7e 3e
       0.47892514 -0.3194851 -0.27144638 0.24843828
0000b0 be d5 e8 be 4f 05 96 be 23 52 4a be e0 b9 af 3e
       -0.45475572 -0.29300925 -0.19757895 0.343215
0000c0 47 fc cc 3e d0 e5 f0 3d 96 6c b1 be 64 a4 c7 3c
       0.40036222 0.11762583 -0.34653157 0.02437038
0000d0 db be 8d 3e 7f 70 a9 be c8 24 5e be a8 27 9c be
       0.27684674 -0.3309364 -0.21693718 -0.30499005
0000e0 93 7d c6 be b3 53 38 be cc 41 91 3d 3d ad 80 be
       -0.3876768 -0.18000679 0.07092628 -0.2513217
0000f0 a7 50 8a be 88 20 62 3e 69 f7 a6 3e 14 e7 9a 3e
       -0.27014658 0.22082722 0.32610634 0.30254424
000100 fc 5e 26 be b9 f9 47 be f2 d6 4e be c2 ae a1 be
       -0.16247171 -0.19528855 -0.20199183 -0.31578642
000110 4d 03 aa 3e 24 2d b5 3e 51 8e c8 3e 9a 2d 77 3e
       0.33205643 0.35386002 0.3917108 0.2413849
000120 1c 53 a3 be fa 94 54 3e 8c 75 dd be 3c b4 bf bd
       -0.31899345 0.20759955 -0.43253744 -0.09360549
000130 61 e7 08 3e a0 70 32 be 8c e2 d9 3e 2e 69 4c 3e
       0.13369514 -0.17425776 0.42555654 0.19961998
000140 6b e9 5a be 38 42 9a be 4f 4f a9 3e 15 d2 ff be
       -0.21378104 -0.30128646 0.3306832 -0.49964967
000150 94 f0 57 3e 65 18 ef 3e df 03 b3 3e 81 b6 9e be
       0.21087867 0.466983 0.3496389 -0.30998614
000160 2f 58 9e 3e 0a 39 d9 be 50 7f 52 3e dc 30 67 3e
       0.30926654 -0.4242633 0.20556378 0.22577232
000170 d7 6e 9c 3e 98 f3 75 3e 4a 1e 1b 3e f2 3e ff 3e
       0.30553314 0.24018705 0.15148273 0.4985271
000180 f9 7f 80 be 7f 09 8d be 61 14 02 bf 7c b5 a6 be
       -0.25097635 -0.27546307 -0.50812346 -0.32560337
000190 fa a7 74 3e 84 71 9a 3e 85 84 af be 90 80 23 3e
       0.23892203 0.3016473 -0.34280792 0.15967011
0001a0 49 04 65 be 1f da b5 be 34 d7 d7 3e ed 69 b6 3e
       -0.22364916 -0.35517976 0.42156374 0.3562769
0001b0 42 78 35 3e 47 0e 2f be a3 49 b6 3e 68 bb a3 3e
       0.17721656 -0.1709529 0.35603055 0.31978917
0001c0 2e c9 93 bd c5 34 c5 3e 77 c1 94 be 19 f7 db 3e
       -0.07216106 0.38516822 -0.29053852 0.42961958
0001d0 b8 21 3d be 65 1f 8c be ec a4 df 3d 9b e1 4f be
       -0.18469894 -0.27367702 0.10920128 -0.20300905
0001e0 e0 03 9a 3e c5 11 c6 3e 9a 27 7c 3e c5 e1 ac 3e
       0.3008108 0.38685432 0.24624482 0.33765998
0001f0 57 17 cb be 50 b4 76 3e 53 6f 0b 3e 3d 99 d4 be
       -0.39666244 0.24092221 0.13616686 -0.41523162
000200 30 a5 a6 3e 9c e9 d3 3e 87 ef f0 be be 89 b8 3e
       0.32547903 0.41389167 -0.47057745 0.3604259
000210 09 06 64 be 03 c1 0c be de d8 a9 3e 95 5f b2 be
       -0.22267927 -0.13745503 0.3317327 -0.34838548
000220 fb b8 b0 3e de bd 9e 3e 07 be ce 3e be 46 87 be
       0.3451613 0.31004232 0.40379354 -0.2642116
000230 f9 e5 89 be 77 b7 8f 3e 1d 1f 60 be d8 a5 63 3e
       -0.26933268 0.2806966 -0.21886869 0.22231233
000240 8a a7 96 be 01 6c 2f 3e 20 00 45 3e 20 26 2a be
       -0.29424697 0.17131044 0.19238329 -0.16616106
000250 f4 4a 92 3e 00 a2 d5 3e ab 16 d8 be 21 8c ba 3e
       0.2857281 0.4172516 -0.42204794 0.36435035
000260 20 0a bb be 39 7c 5d be ed bc 80 3e 70 09 94 3e
       -0.36531162 -0.21629418 0.2514414 0.2891345
000270 83 bb 7b 3e e9 f0 68 3e d2 d0 52 be 12 c0 8f 3d
       0.24583249 0.2274815 -0.20587471 0.070190564
000280 66 32 5b be 6d 63 84 be 85 ad 2f 3e 8b fc 66 3e
       -0.21405944 -0.25857106 0.17156036 0.22557275
000290 de 40 b7 be 86 7a 58 be fc 42 a4 be c7 8f 9b 3e
       -0.35791677 -0.21140489 -0.32082355 0.3038313
0002a0 e3 1e b5 3e ef 1d 8b be b1 69 39 3e 68 59 77 3e
       0.35375127 -0.27171275 0.18106724 0.241552
0002b0 16 ca 9e 3e 22 a0 d3 3e a4 4a 82 be b5 2c 60 be
       0.31013554 0.4133311 -0.2544757 -0.21892054
0002c0 ea 6c da bd 56 9d 7b be d4 6a ae 3e fc b3 6d 3e
       -0.10665305 -0.24571738 0.34065878 0.2321319
0002d0 b6 d5 ab be 56 c7 c8 3e 2e 18 39 be fa ae 86 be
       -0.33561486 0.3921458 -0.1807563 -0.26305372
0002e0 4b 99 aa 3e a2 6e 73 3e c8 e1 35 3e a9 17 e0 bd
       0.33320078 0.23772672 0.1776191 -0.10942013
0002f0 28 5c 91 3e 90 6f b1 be 37 e2 cb be 2d 36 80 3e
       0.28390622 -0.34655428 -0.39821026 0.25041333
000300 20 e0 9c 3e 2b ee 22 be 88 56 45 3e f2 bd e9 be
       0.30639744 -0.15911166 0.1927129 -0.4565273
000310 2d 55 73 be fc 1b a7 bd cc e0 a9 3e 4e b6 de be
       -0.2376296 -0.081596345 0.3317932 -0.43498462
000320 4d e2 de 3e 7b a0 5f 3e 87 fa b5 be 1b 89 7d be
       0.4353203 0.21838562 -0.355427 -0.24759333
000330 e6 a0 04 bf 34 04 a6 3e 30 82 92 3e 91 ff 84 3e
       -0.5180801 0.32425082 0.2861495 0.25976232
000340 a9 7b 48 be 25 2d 97 be 1e 6f 6c 3e c5 2b bd 3e
       -0.19578423 -0.2952663 0.23089263 0.36947456
000350 09 ca 9f be 7f 47 9b be cc 0f 62 3e f3 3e 2b 3e
       -0.31208828 -0.30327985 0.22076339 0.16723232
000360 d6 0e 9d 3e 66 4d d2 3e 75 09 2d 3e 0f 4e 30 3e
       0.3067538 0.41074675 0.16898139 0.17217277
000370 40 9f 6f 3e 49 c9 e6 be ad 76 83 3e dd eb 2d be
       0.23400593 -0.45075443 0.2567648 -0.16984506
000380 8d 72 01 be 0c 00 97 be 99 b0 17 3e 67 89 52 3e
       -0.12641354 -0.29492223 0.1481346 0.20560227
000390 9d 05 a7 3e 4a a4 7a be 3e d9 ad be d3 cd 5b 3e
       0.3262147 -0.24476734 -0.33954805 0.21465234
0003a0 e5 0d 89 be 69 d1 f1 3e f6 e3 b3 3e 4e 5b 91 3e
       -0.26768413 0.4723008 0.35134858 0.28389972
0003b0 93 60 a2 3e be ae 5f be 50 dc 89 be 9f 63 d2 be
       0.31714305 -0.21844003 -0.26925898 -0.4109163
0003c0 ca ae dd 3e ca 22 27 3e 7f 37 d7 be 8d 69 f8 be
       0.43297416 0.16321865 -0.42034528 -0.4851803
0003d0 f0 06 9a 3e 68 9c b0 3e 96 2b 78 be f6 44 5c be
       0.30083418 0.34494328 -0.24235377 -0.21510682
0003e0 bb 79 75 3e c3 59 af be 54 2b dc be 0a a3 88 be
       0.23972218 -0.3424817 -0.43001807 -0.2668689
0003f0 ab c8 87 be 0c 5f 51 3e c7 17 c1 be c4 ba 95 be
       -0.26520285 0.20446414 -0.37713453 -0.29244053

net.9.bias f4 [10]
000000 f7 de 28 3e 56 64 b0 3c 34 65 eb bb 85 9b aa bd
       0.16491304 0.021532219 -0.007183695 -0.08330444
000010 a4 0c 45 3d 48 0a 2f 3d dc c8 65 bc c1 a5 41 ba
       0.04810776 0.042734414 -0.014024939 -0.0007387065
000020 89 d2 e4 3b 8d fa 2c 3d
       0.0069831056 0.04223113
