models/stolen_watermarked_model_0.4.pt (torch, 107233 bytes, 8 tensors)

net.0.weight f4 [16, 1, 8, 8]
00000000: 3bd3 943d 05e8 f63c 7d09 aebc 2342 fdbc
00000010: f246 35bc 8a8a b13d edb7 9d3d f93e 143e
00000020: 004c 79bd c824 2fbd 7734 babd cb8b 6d3d
00000030: 03df 53bd a117 b53d 5240 a53c f586 353d
00000040: 1d94 95bb 6595 40bd a6c0 fcb9 8a94 bbbc
00000050: 4a6a 8d3d c286 fb3c ac77 433d cfa8 4e3d
00000060: c808 16bd 5f92 343c 580b 743c a0d9 0bbd
00000070: d8ce 54bd d8e9 463d d54f 843d 0587 f03c
00000080: 8944 d8bc 0b63 0cbc aa6c 40bd a86f 00bd
00000090: 3c61 12bd 2311 023e baf1 e73d 4095 163d
000000a0: e918 4dbd 1a9b 25bc 2da1 64bd 1655 32bd
000000b0: d508 643d 8654 313d 9737 1a3d 9e87 66bc
000000c0: 9b29 0dbb bc2a a6bd 0df4 29bc eb10 b4bc
000000d0: 48b1 903d 7950 8d3c 9cac 773d 0b1c cfbb
000000e0: 068b 28bd 1be6 19bd 461f 3f3d 7d23 8b3d
000000f0: f82a a8bc 7643 db3d 6868 54bd 8e55 3fbc
00000100: 91d1 b23d 44f5 a73d dd50 af3d 376a 133e
00000110: 490d f93d aea7 d93d 6995 db3c 5fc2 d43d
00000120: 6bd6 4b3c 3177 a9bc 855d a73c 0235 38bd
00000130: ed27 8bbc fe57 213d cb83 103e d2c1 c53d
00000140: 502e dabd f216 92bd fb5f 13bd 3b1f 2ebd
00000150: 99e4 483d 1cdc d13d 0a96 853d 1550 e93d
00000160: f8e4 73bd 8210 85bd 7207 7b3d c0e1 4fbc
00000170: ae66 243d 457f 23bd e9aa 3d3d 42b9 8bbd
00000180: e88a 3ebd 8a35 8c3d 88df 023d 815b 903d
00000190: 2735 bbbd e7da 6db9 45dc edbc b23d 6cbd
000001a0: ffbf 293d d795 00bc df1d abbd 7358 e0bd
000001b0: db7d d0bd 702e ee3c b4d8 1d3c a3ad 75bd
000001c0: 365f 05bd 881a dbbc 84a2 6bbc d0e2 85bd
000001d0: dc01 2f3c 316f 203c 7425 b13d 3be5 133d
000001e0: cf48 dfbd b0df 99bb 20ec 55bd 8eda 6cbd
000001f0: 0bed 79bd 05f4 90bd 4a2d 1bb9 a96e 363d
00000200: 4963 e3bd 17d4 babb 74e8 103b 2491 7a3d
00000210: fbe0 163d 50ee eebc 33a2 703d 2190 c63d
00000220: 4a32 e2bd cb6d e73b 0bc2 4bbd b508 443d
00000230: f72e 3cbd c99b 893c 0303 52bd 2142 343d
00000240: d3b4 1ebd 340a 7fbc a26d a53c 6a1f ef3d
00000250: c284 5fbc ff93 503d c77c 8f3c 9ce3 7a3d
00000260: 6454 c5bd 65ad 983d 3069 973d 9442 233b
00000270: 9f28 8cbd f4ba 2ebc e749 993c 1218 5ebd
00000280: 9a52 01bd 6669 f03a bd55 c23d 6990 9ebc
00000290: 87d8 193d 8433 0a3c 5b95 783c f58d a23c
000002a0: 97b8 283d 034c 993d 990d e83c 411c b6bd
000002b0: 0cce fa3c 86af 48bd 5651 c13d ae54 8c3d
000002c0: c147 a63d 411e 8f3d 44c9 4c3d b0b9 b13b
000002d0: 9220 9ebd 4e02 e03c f03e 5f3d 817f 793d
000002e0: 06e9 c7bc 57d6 a33d b0b8 703d 3659 c33c
000002f0: 8822 15bd babe 87bd 62b2 11ba fe9a 1d3c
00000300: 51f1 a03d 7081 883c c33e 14bd 3277 733c
00000310: 74d5 1dbd 6e98 583c 9db5 da3c b9da 823c
00000320: 485d 823d 5b5c 743d 4482 c43c 4f37 96bc
00000330: 917b 5bbc e560 aa3d e3f5 9bbc 389b 0e3d
00000340: 7e19 7c3c 30fd f0bc 9897 abbd c616 543d
00000350: b542 2c3d aa7a c0bc 9bdd e73c bd66 21bd
00000360: 49a6 a13d 44f0 cdbc baaa 5d3d f247 0d3d
00000370: 7f50 1d3d 3a7e 8cbd aa90 833d 1d28 cabb
00000380: 5e66 56bd 9edf d43c f84e fa3c af43 8c3c
00000390: aad8 aa3d f9c3 863d 9ac4 93bd 3bcc 60bd
000003a0: fbd1 2a3b 62ba 0d3c 7c9f 9f3d 64de aa3d
000003b0: ab86 e03d 01b8 523d 8989 343d cd4a edbd
000003c0: be1b 8c3d d1ba 963d e1ac cdbc d3f9 4cbd
000003d0: eb5f 503d 9848 093e 7970 c83d a3e5 2a3d
000003e0: fd22 b7bc a944 29bd f6a0 babd 443c ddbd
000003f0: b986 0dbd 3547 713d 75f0 d93d 6c5e 823d
0.072668515 0.030139932 -0.021244759 -0.030915326 -0.011064278 0.08669002 0.07701097 0.14477147
-0.060863495 -0.042759687 -0.09092038 0.057994645 -0.051726352 0.088423975 0.020172272 0.04431816
-0.0045647756 -0.047017474 -0.0004820872 -0.022897977 0.06905039 0.030703906 0.04772155 0.050453957
-0.03662947 0.011021226 0.014895283 -0.03414309 -0.051955074 0.048562855 0.06460539 0.029361257
-0.026399868 -0.008568536 -0.04697863 -0.031356484 -0.03573726 0.1270185 0.113254026 0.03676343
-0.050072584 -0.01010778 -0.05581777 -0.043538176 0.055672485 0.0432935 0.03765067 -0.01407042
-0.0021539691 -0.0811362 -0.010373128 -0.021980723 0.07065064 0.017250286 0.060467348 -0.0063204817
-0.041148208 -0.03757296 0.046660684 0.06793878 -0.020528302 0.107062265 -0.051857382 -0.011678113
0.08731378 0.082010776 0.08560345 0.14395986 0.12160737 0.106276855 0.026804643 0.10388636
0.012441258 -0.020686718 0.020430336 -0.044972427 -0.016986812 0.039390557 0.14112775 0.09656109
-0.10653365 -0.07133283 -0.035980206 -0.042510252 0.049046133 0.10247061 0.06522758 0.113922276
-0.059544533 -0.06497289 0.061286397 -0.0126881 0.040136985 -0.039916296 0.04630557 -0.068224445
-0.04651919 0.06846149 0.031951457 0.07048703 -0.091409974 -0.00022683629 -0.029035697 -0.057676025
0.041442867 -0.007848225 -0.08355307 -0.1095437 -0.10180255 0.029074878 0.009634186 -0.059980046
-0.032561503 -0.02674605 -0.014382008 -0.06537402 0.010681596 0.009792135 0.08649722 0.036107283
-0.10902559 -0.004695855 -0.05222714 -0.057825617 -0.061017077 -0.07077793 -0.00014798823 0.044539127
-0.111029215 -0.0057015526 0.002211121 0.061173573 0.03683565 -0.02916637 0.058748435 0.09695459
-0.11044748 0.007062649 -0.0497456 0.047859866 -0.045943227 0.016797917 -0.051272403 0.044008378
-0.038746666 -0.015566397 0.020193879 0.11675914 -0.013642492 0.05092239 0.017515553 0.06125222
-0.09635237 0.074549474 0.0739311 0.002491151 -0.06843685 -0.01066469 0.018711997 -0.054222174
-0.031572916 0.0018341958 0.094890095 -0.01935597 0.037560012 0.008435134 0.015172328 0.019843081
0.041191664 0.07485201 0.028326796 -0.08892108 0.030615829 -0.048995517 0.09439342 0.06852089
0.08119155 0.06988192 0.04999663 0.005423747 -0.07721056 0.027344849 0.05450338 0.060912613
-0.024403106 0.079998665 0.05876988 0.02384625 -0.036409885 -0.06628175 -0.0005557892 0.009619473
0.078585275 0.016663283 -0.036192667 0.014859961 -0.038533643 0.013219936 0.026697928 0.015973436
0.06365448 0.05965839 0.023987897 -0.01833692 -0.01339616 0.083192624 -0.019038146 0.034815997
0.015386937 -0.029417604 -0.083785236 0.05177953 0.042055804 -0.02349599 0.028303912 -0.03940462
0.078930445 -0.025138982 0.054117896 0.03449244 0.038406845 -0.06860013 0.06424077 -0.0061693327
-0.05234372 0.025985535 0.030555233 0.017122118 0.08342107 0.065803476 -0.07215233 -0.05488227
0.00260651 0.008650394 0.07794091 0.08343199 0.10963186 0.05144501 0.044076476 -0.11586533
0.06841229 0.07359851 -0.02510685 -0.05004294 0.050872725 0.13406599 0.097870775 0.041722905
-0.02235555 -0.041325245 -0.09112732 -0.108025104 -0.03455231 0.0589058 0.10641567 0.06365666

net.0.bias f4 [16]
00000000: 846a f8bd a415 14bb bbf9 29bb 16a2 d5bd
00000010: 15eb cf3c 92cf 49bd cf42 ec3c 09a3 8ebd
00000020: b582 293b 833d 07bd eab3 123d 6749 8dbd
00000030: 5ed1 c23c f517 afbc 373a eabd e73e 2cbd
-0.12129691 -0.0022595907 -0.0025936204 -0.10431306 0.02538065 -0.04927022 0.02884045 -0.0696469
0.002586526 -0.033017647 0.03581611 -0.06898766 0.023781475 -0.021373728 -0.11436885 -0.042052176

net.3.weight f4 [32, 16, 4, 4]
00000000: f474 903d c648 6f3d d0a1 973b cb71 07bd
00000010: 943f 9c3d c510 a73d 11c3 133c fb99 b6bc
00000020: 5884 8c3d 6741 6c3d adf6 083a cd05 c8bc
00000030: ee0f 893c 0fe0 a5bb 577c 84bb b9d1 9cbb
00000040: 1c17 be3c 28f1 0ebd f277 b6bb c42b b0bc
00000050: bbd2 563c 9b7d 053d b63f 20ba 571d ca3c
00000060: 1bf0 813b c1e2 08bc a452 d33b 559d f7bc
00000070: 0e1b 84bc 5fdc cb3b 3b11 fdbb b092 a4bb
00000080: 0bf1 793c 7fdd 323c 9741 e53b 2bb0 343d
00000090: 69fc ee3c 70b8 2b3d 8734 583d 5ce9 d93c
000000a0: dff5 053d 366e 3f3d 6086 003d f40e 533a
000000b0: 45bf abbc 081d 1a3d fcc9 403d 7d71 99ba
000000c0: b1d1 e9bc 46b6 913c 69bc 4bbc 67cc 76bc
000000d0: 863c f2bc bd6c de3c 12cb 113d 7d85 b13c
000000e0: 7123 493b ad58 983b 79d4 dc3c d41b 1b3d
000000f0: 1bda 223d 7fcf ee3c a641 02bb 6083 cb3a
00000100: 24e2 d93c e626 093c 44c1 c13c e672 10bd
00000110: fedb d2bb 227f 58bc b7aa 9fbc 827f 04bd
00000120: d2b1 95bc eccc cf3c 4dcf f3bc 0b27 dc3b
00000130: a7b3 15bc cf80 6bbc b1a1 9e3b c36b 9ebc
00000140: 84f3 863d 33d9 993c 3219 213d 830a bb3c
00000150: 4bf0 a83d e484 743d 0db6 1a3d 1866 b0bc
00000160: 4647 8b3d 2d71 4f3d 1367 0cbd b0c7 5dbb
00000170: 079c b33d 3405 9e3c c1cb 0dbd 9941 85bc
00000180: 999a 4ebd 5c48 963a 20bc c43b e8da 553c
00000190: b652 2dbd 29b5 0f3c ba08 c13c ece0 0a3d
000001a0: a8a1 f03a d497 54ba b7dc 0e3d c049 073c
000001b0: 971a 53bc 8fc8 0d3d 2357 083b 81fe 96bc
000001c0: e625 2b3d 3e7c 863c 4f20 52bb 0956 503c
000001d0: 5221 a83c 8ddf 56bd 8ac6 6f3b e84b 813d
000001e0: ad3f 0abd 792f 80bd 3055 833c 644c 193d
000001f0: e4b3 08bd 0a8c 32bd 9835 a03c 84a5 783c
00000200: 0c44 3abd 43b6 95bb 3b24 753d 9cb1 2a3c
00000210: b64a 87bd 9205 74bc 53cd 2d3c fd55 1c3d
00000220: 5572 78bc bf60 ad3c 8804 5bbb 7330 dc3c
00000230: 3c78 06bc bfe5 e53b 57e8 42bc 9b2e bdbc
00000240: 35b5 f6bc d576 8abc 030e 1abd 84d4 f6bc
00000250: 7896 f7b9 b612 35bd ea65 60bd 5d84 b3bc
00000260: 751c 1bbd 911e 56bd 2213 6ebd 5a93 46bc
00000270: 79b4 52bd 14c6 91bc bf1d 0cbd 3747 35bc
00000280: a5be 29bc 62a3 2abd f74b 32bd bc06 7cbb
00000290: fde8 15bd bc4a fcbb be85 52bd c160 97bb
000002a0: 4017 16bd 9a3f 34bd 0fbb 19bd 3a68 e53c
000002b0: bd12 0bbd 3d12 3fbd 7d6b 49bd 297d 983c
000002c0: de6b 39bd 22f0 7bb9 a02c 1c3d df2f 243a
000002d0: 823c 05bd 3ccb 963c 130c b23c 16d8 d13c
000002e0: 2e37 323c c5df 6b3c a4bd dd3c f7fe 80bc
000002f0: fa89 09bd c969 153d e02a 993c 52ce 70bd
00000300: 05c0 29bd 0fbe 50bc 48ff 343c b3d0 04bc
00000310: d269 4dbd a686 3abc 9e08 513d 422b 92bc
00000320: 1690 16bd cfdb dbbc efa3 073d c658 70bb
00000330: f7ad 22bc bf22 eabc d2d0 cf3c f3b6 923c
00000340: 0bf4 88bc 2b1c 32bd 92c5 94bd fb61 073c
00000350: e50a 46bb 41e3 74bd 436c 70bd 718c 333c
00000360: 9dac b1bc 2068 2cbd 37b5 09bd 7153 e9bc
00000370: 4a4b 73bb 1e54 fbbc fef6 5dbd de2b 9c3b
00000380: 2430 39bc 82a1 3fbd 72ef c5bc 7c0e c53b
00000390: 548e 52bd 0e48 8dbd e6a4 0bbd 1a72 e5bc
000003a0: f612 fbbc 1820 68bd 9041 62b9 23c4 d53c
000003b0: fcf8 56bd a4ad d7ba f99f aabb a870 92bc
000003c0: eef1 363c 1bd1 58bc 6301 85bd bd34 d2bc
000003d0: fd39 c23c 81d5 c53b dcfd 9dbd 006b 1fbd
000003e0: 0e4c 443c 4963 2fbd 0576 ebbc 84a3 7a3c
000003f0: 68ea 7a3c 9ce3 9cbd cd5d efbb 7103 e8bc
0.07053557 0.05841901 0.004627444 -0.033067506 0.07629314 0.081574954 0.009018675 -0.02229022
0.0686118 0.05767956 0.0005224746 -0.024416829 0.016731229 -0.0050621103 -0.004043143 -0.004785743
0.023204379 -0.034897953 -0.005568498 -0.021505244 0.0131117655 0.03259049 -0.00061130093 0.024672193
0.0039653904 -0.008354844 0.0064490605 -0.030226389 -0.016126182 0.0062213386 -0.0077230013 -0.0050223693
0.015255223 0.010917067 0.0069963443 0.04411332 0.029173093 0.04192394 0.05278447 0.026600532
0.032705184 0.046735965 0.03137815 0.00080512394 -0.020965228 0.037625343 0.047067627 -0.0011706796
-0.028542371 0.01778711 -0.012435057 -0.015063382 -0.029569875 0.02715146 0.035594054 0.021670097
0.003069129 0.004649243 0.026956784 0.037868336 0.039758783 0.029151676 -0.0019875555 0.0015526824
0.02659709 0.0083710905 0.023651727 -0.035265826 -0.0064349165 -0.013213905 -0.019490583 -0.032348163
-0.018273268 0.025366269 -0.029761935 0.0067185215 -0.009137071 -0.014373972 0.0048410525 -0.019338494
0.06589416 0.018780326 0.03933067 0.02283216 0.08248957 0.059697047 0.037771273 -0.021533057
0.06800704 0.050645042 -0.034277987 -0.0033840947 0.08769994 0.01928959 -0.034618143 -0.016266631
-0.050440405 0.0011465657 0.0060038716 0.01305268 -0.042315207 0.008771219 0.023563731 0.03390591
0.0018358724 -0.00081097824 0.03487846 0.008257329 -0.0128847575 0.034615096 0.002080389 -0.018431904
0.04178419 0.016416665 -0.0032062714 0.012715825 0.0205237 -0.05245929 0.0036586844 0.06313306
-0.033752132 -0.06259055 0.016031832 0.037426367 -0.033374682 -0.043590583 0.019556805 0.015176181
-0.04547505 -0.0045688464 0.059849005 0.010418322 -0.06606047 -0.014893906 0.010608035 0.038167942
-0.015163978 0.021164296 -0.003341945 0.026878571 -0.008207377 0.0070159133 -0.011896214 -0.023093512
-0.030115703 -0.016902367 -0.03761102 -0.030130632 -0.0004722362 -0.044207297 -0.054784693 -0.021913702
-0.037868936 -0.052275244 -0.058123715 -0.012120092 -0.051441643 -0.017794646 -0.034208056 -0.011064342
-0.010360395 -0.04165972 -0.043529477 -0.0038456162 -0.036599148 -0.0076993387 -0.051397078 -0.0046196883
-0.036643267 -0.044005968 -0.03753191 0.0280038 -0.033953417 -0.046648253 -0.049174774 0.018614369
-0.045268886 -0.00024026682 0.038128495 0.0006263237 -0.032528408 0.018407457 0.021734273 0.025615733
0.010877414 0.0143966125 0.027067967 -0.015746577 -0.03357885 0.036477838 0.018697202 -0.058790512
-0.04144289 -0.012740626 0.011047192 -0.008106398 -0.050149746 -0.011384642 0.05103361 -0.017842893
-0.036758505 -0.026838211 0.033115324 -0.0036674007 -0.009929172 -0.028581021 0.025368128 0.017909503
-0.016717931 -0.043483894 -0.07264246 0.008263106 -0.0030218896 -0.05978704 -0.058696996 0.010958777
-0.021688754 -0.04209149 -0.033620086 -0.02848217 -0.0037123733 -0.030679759 -0.05419063 0.0047659716
-0.0113029815 -0.046784885 -0.024162028 0.0060136896 -0.051405266 -0.06898509 -0.034092806 -0.02800851
-0.03064869 -0.056671232 -0.00021577463 0.026094502 -0.052483544 -0.0016454947 -0.0052070585 -0.017875984
0.011166079 -0.013233448 -0.06494405 -0.025659913 0.023709292 0.0060374145 -0.077144355 -0.038920403
0.0119810235 -0.042819295 -0.0287428 0.015297774 0.015314676 -0.076606005 -0.007304883 -0.028321953

net.3.bias f4 [32]
00000000: c6ed d7bc 07b8 23bc 2f03 9fbb 395d 8e3b
00000010: c32c edbc ac6f a8bc 4c9c 803c be3d d5bc
00000020: e649 153a 6096 05bc 57f9 40bc b2a5 66bb
00000030: 2ddc 9c3b 4c60 0dbd 11b8 293c 8b61 56bc
00000040: fafa 05bd 8e98 71bb e65d bdbc f960 2ebc
00000050: ebf5 aabc f0d1 61bd 6bed 47bd f9ef abbb
00000060: 5990 c1bc 4943 68bc 6b11 9dbc baa7 d1bb
00000070: 2580 683b 56c6 bbbc 7a01 863b a69f b2bb
-0.026358496 -0.009992606 -0.0048526744 0.004344609 -0.028952008 -0.020561062 0.015699528 -0.026030418
0.00056949107 -0.008153528 -0.011778197 -0.0035193977 0.004786989 -0.034515664 0.010358826 -0.0130847795
-0.032710053 -0.0036864611 -0.023116063 -0.010643237 -0.020869216 -0.055131853 -0.048810404 -0.005247113
-0.0236284 -0.014176198 -0.019173345 -0.0063981684 0.003547677 -0.022921722 0.0040895315 -0.0054511605

net.7.weight f4 [32, 512]
00000000: f7a9 043d 42ee 07bd af16 b03b 683e 8bba
00000010: cd9d 5e3d cccf 153b 6f1e 8abc 8fbc 223a
00000020: a8d5 8b3c bf45 6dbc ac5d e7bc 0e24 063d
00000030: 608c 53bc 6ddd 31bd bb41 15bc bd00 183d
00000040: a003 c93c f41b 503d 755a 103c 7305 2d3c
00000050: 0cb3 923c 7825 c03c d928 b9bc d006 1cbc
00000060: 6e82 18bb 2040 ba3b 006a 693d ab88 33bd
00000070: fae0 cebc 79f6 a93c d11d a73c cf10 1b3d
00000080: 774c 2a3c 5b36 043d acd7 003d f4d1 213d
00000090: e23e 213d dbda 823b 6b7e 0fbd 3420 2dbc
000000a0: 66c3 8ebc 75ba 01bc bdd1 66bc 6232 c83c
000000b0: 9c57 2fbd ab62 e9bc 0e75 c23a 78e4 c0bc
000000c0: ed33 053c ad1f 773c 0849 a43c 811a 3dbb
000000d0: 52c6 4e3c 20b8 d93c b3ad a43c 505f 2abb
000000e0: ddc0 9fbc 9c0b 2b3d 2c78 dd3c 03a2 32bc
000000f0: d760 ee3b 4a61 bf3c 448b 5f3d fcc5 9d3b
00000100: d3f9 db3b b731 7e3c df66 80bc 320f 07bd
00000110: 52ac 1a3b 788b e63b c115 053c ff3c debc
00000120: e428 57bd 11f6 2b3d 3f6b a5bc dfa4 f9bc
00000130: 405c 9c3c d58a 2d3d 3c0f 093d 5461 f53c
00000140: 89d1 5e3c 0ac4 083d 888f bc3c 8a2d 083d
00000150: a8ca 583d 6dec 2b3d e1d9 413d ec8b 663d
00000160: 65aa 383d aac0 12bc ca0a fe3b ed50 4e3c
00000170: b374 0d3c 7cf2 91bc 06bb 203c 01eb 653b
00000180: 8581 c03c 2b0b 293d 5e80 8c3b a5f8 39bc
00000190: 09b4 3c3c 7203 e83c 1003 0ebd 97b3 efbc
000001a0: 9704 183c eb68 ec3c d1b9 63ba 21c1 85bd
000001b0: 7b32 33bd 368f f93c 92fd ab3a 044c b0bc
000001c0: da93 ee3c 15aa 6839 609f 863c ac7b 803b
000001d0: 8ae0 883c 5a01 573c 936a 6a3c 1f8e 91bb
000001e0: e93d dcbc 19a6 213d 0ed3 143d e3dc 4ab9
000001f0: 3c1f d7bc a63b 793d 2398 8e3d 3082 77bb
00000200: d608 723c 07b4 033d 6b7a 26bb 0ff6 f73c
00000210: 49f8 743d 933f c2bb 55d4 683b 94cb df3c
00000220: ed0b 913c 2396 18bc 00bf dbbc 535c c93c
00000230: 1c90 03bc aed3 82bc 7a53 a0bc a62a 67bd
00000240: 79bd 36bc 1369 f5bc 31f5 993c 439a 173c
00000250: 056e 033c eab5 193c 96c6 b73c e099 993c
00000260: 8017 0e3d f20d 3cbc be72 933c b230 f3bb
00000270: 4f3d 473c fc12 f43b 314b c8bc c6d3 c6bc
00000280: 5051 febb a5df 523c 32ac b83c 98b7 2d3a
00000290: 3efb e2bb 1292 9f3c 0de9 b5b9 a15c c5bc
000002a0: 3f2f a1bc 1817 b83c 6c3a 0d3c c64e 533c
000002b0: 277e 53bc 5d82 95bc b43f 2c3d e82b 793a
000002c0: e743 e6bb 46e7 63bc 4eec d73c 6c41 41bc
000002d0: 84d1 93bc dcb2 013d 03a3 d23a 754f a53c
000002e0: d5d7 943c d45b 193d a373 123d b3e5 163a
000002f0: a3a5 0d3c a938 693c 0f46 663c 2feb 5bbc
00000300: 6f0e 413c 2af0 ffbb daa5 933c d740 c73c
00000310: 02fc ff3b efc9 e93b 2b95 dabb fe6c 07bc
00000320: fe1b 3c3c 773f f6bc 242a 0abc a367 68bc
00000330: fffb 10bd a511 a53b 6aa2 c3bc f66d 5ebd
00000340: 3e71 163d 2dce 403d 71ca 643d df7d 463c
00000350: 0dc1 6b3d cf60 2b3c f51f 043d cc60 52bb
00000360: e358 ad3c 96d9 c73c 80ee a8ba df1f 9bbc
00000370: dddc d9bc b0da ebbc dbc0 10bd d944 79bd
00000380: 4c16 183b 2139 c73c b604 eb3c 1996 2c3d
00000390: bbad 713b 2da7 24bb c7fb 99bc 89fd e73b
000003a0: 72f8 4b3b f675 7ebc a16d 3f3b 4a39 dc3b
000003b0: 1a20 92bc e94a a9bc 422d 513b 6a98 e3bc
000003c0: 342c 9d3c d937 183b a306 4cbc e34b e33b
000003d0: 6afe fbbc 1950 f03c 777e a7bc 3944 84bb
000003e0: e655 3abc 6126 233d d200 3f3d e309 2f3d
000003f0: b957 fb3c ea69 e83c e1c2 313a 3822 813c
0.032388654 -0.033186205 0.005373798 -0.0010623457 0.05434971 0.0022859452 -0.016860215 0.0006207907
0.017069653 -0.014481961 -0.028242908 0.03274923 -0.012911886 -0.04342406 -0.00910991 0.03711008
0.024537861 0.05080791 0.008810629 0.010560381 0.017907642 0.023455366 -0.022602485 -0.009523109
-0.0023271102 0.005683914 0.056985855 -0.04383151 -0.025253762 0.02074741 0.02039996 0.037857827
0.010394207 0.0322784 0.03145568 0.039506868 0.03936661 0.0039933748 -0.03503267 -0.01056676
-0.017427158 -0.00791799 -0.014088091 0.024438087 -0.04280816 -0.028489431 0.001483591 -0.023546442
0.008130056 0.015083236 0.020054355 -0.002885491 0.012620525 0.026577055 0.020102357 -0.0025996752
-0.019501144 0.04175912 0.027034841 -0.010902884 0.007274728 0.02336182 0.054576173 0.0048148613
0.006713131 0.015514783 -0.015674053 -0.032973476 0.0023601246 0.007035669 0.008122862 -0.027128695
-0.05252923 0.041982714 -0.02019274 -0.030474124 0.019086957 0.04236873 0.033461794 0.029953636
0.013599762 0.033390082 0.02301766 0.033246554 0.052927643 0.04197352 0.047326926 0.056285784
0.045084376 -0.0089570675 0.007752751 0.012592536 0.00863378 -0.01781582 0.009810215 0.00350827
0.02349926 0.041270416 0.0042877635 -0.011350785 0.011517533 0.028321955 -0.03467089 -0.02926044
0.009278438 0.028858623 -0.00086870516 -0.06530977 -0.043749314 0.030463796 0.0013121834 -0.021520622
0.029123235 0.00022188605 0.016433418 0.003920993 0.016708631 0.013122881 0.014307636 -0.004441991
-0.02688499 0.039465044 0.03633409 -0.00019346508 -0.02626001 0.0608479 0.069626115 -0.0037766807
0.014772614 0.03215411 -0.0025402557 0.030268697 0.059807096 -0.005927989 0.003552695 0.027318753
0.017705882 -0.009313139 -0.026824474 0.024580156 -0.008029964 -0.015970077 -0.019571055 -0.056437157
-0.011153572 -0.02995733 0.018793674 0.009253087 0.008021836 0.009381751 0.02243356 0.018750131
0.03469038 -0.011477934 0.01799905 -0.0074215764 0.012160613 0.007448552 -0.024449917 -0.024270903
-0.007761158 0.012870704 0.022543047 0.0006626784 -0.006926923 0.019478831 -0.00034696647 -0.02409202
-0.019675849 0.02247195 0.008619886 0.012897199 -0.012908495 -0.018250639 0.04205294 0.0009505139
-0.0070271376 -0.01391012 0.026357796 -0.011795383 -0.01804424 0.031664714 0.001607031 0.02017949
0.018169323 0.03744109 0.03575481 0.0005756274 0.008645448 0.0142347 0.014054789 -0.013422771
0.011783226 -0.007810612 0.01802342 0.02432291 0.007812024 0.007134668 -0.0066706142 -0.008265732
0.011481283 -0.03005956 -0.008432899 -0.014184865 -0.035396572 0.005037504 -0.023881156 -0.054304086
0.03672909 0.047071625 0.055857126 0.012114971 0.057557154 0.010460093 0.03225704 -0.0032101152
0.021160549 0.024395745 -0.0012888461 -0.018936096 -0.026594574 -0.028790802 -0.03534017 -0.060856674
0.002320665 0.024319233 0.02868877 0.04213533 0.0036877233 -0.0025124059 -0.018796815 0.0070797843
0.0031123427 -0.015531054 0.002920963 0.0067206966 -0.017837573 -0.020665603 0.0031917845 -0.027782638
0.019186117 0.0023226647 -0.012452754 0.0069365366 -0.030760963 0.029335069 -0.020446045 -0.004036453
-0.011373019 0.039831523 0.04663164 0.042734038 0.030681478 0.028370816 0.00067810534 0.015763387

net.7.bias f4 [32]
00000000: f85d 433c 0f27 efbc 9779 f8bb c654 9d3b
00000010: 9a1b a9bb 0310 b4bb 6146 43bb af85 653a
00000020: b55d 103c eea2 fc3c 88f3 e83c 8bfd 273c
00000030: b2ff 97bc a1e0 7c3a 9d06 b83c 2cd3 c4bc
00000040: 17d3 7e3b c8a9 95bc 5939 43bc 2dfa 91bc
00000050: 4130 3bbc b18a baba a88f ebbc f616 953c
00000060: 20d5 f1bc 6638 5e3c 5631 f53c 60f7 c03c
00000070: 4838 adbc 18cd c13b 26dd 873c 96c8 56bc
0.011924259 -0.02919343 -0.007582854 0.0048013655 -0.005160761 -0.005495073 -0.0029796588 0.0008755577
0.008811404 0.03083941 0.028436437 0.01025332 -0.018554542 0.00096465094 0.022464091 -0.024026476
0.0038883144 -0.018269435 -0.011915528 -0.017819488 -0.011425079 -0.0014232007 -0.028755024 0.018199425
-0.029520571 0.013563251 0.029930752 0.023555458 -0.021145001 0.0059143417 0.016584944 -0.013109347

net.9.weight f4 [10, 32]
00000000: 1200 ae3e 2065 b2be 8caf cb3e f6dd c73e
00000010: c764 4fbe 7fb9 2f3c 29dc c83e 78a2 50be
00000020: 6366 833e 7dcc 043e d4f3 353e f2f0 fc3d
00000030: 3ab4 babe 5504 9c3e 3b55 a8be 6fd0 b8be
00000040: 4aea 8ebe dd01 02be 7409 3d3e d59e 78be
00000050: 1e92 3f3e 3cb5 3ebe d370 7cbe 4671 883e
00000060: a063 84be 4676 d93e dd44 5b3e f571 893e
00000070: e2c3 813e f255 b53e d26a d4be 69b5 8ebe
00000080: ee54 a7be 0a27 95be e5da a0be 257e b93e
00000090: fb2d 08be 618a 9c3e de73 80be d079 a83e
000000a0: e3f7 abbe ef8d c1be f6ae e7be 3f62 40be
000000b0: b57d 16be 7883 abbe d3a2 cd3e 3d91 c0be
000000c0: 976a b0be e1a7 9dbe 29be ce3e 9a62 a43e
000000d0: 7a7f b5be 1d6f 413e 28cc 92be 85bf 9fbe
000000e0: 7c7a 8b3e d430 e03e e2b8 b2be decd 123e
000000f0: 0c12 8bbe 16d9 15be a76a a33e a5f2 4c3e
00000100: 7fc6 44be ced3 8abe f052 6dbe 9d89 ad3e
00000110: e60f 17be ac4f edbe 110a b0be 56c9 9ebe
00000120: a5fa efbe e5c8 603e dd9d 253e cb6c 9ebe
00000130: c628 a5be 5ac7 bdbe cbe5 adbe 36e9 83bd
00000140: 6f86 6abe 9143 11be 57e4 c7be 7f2f d63e
00000150: 3305 263e 5338 4d3e 3886 6c3e bb6d b4be
00000160: f436 a73e 260f 9abe 9114 9a3e c549 b33e
00000170: 53a8 ac3e a554 23be b311 f3be d73f b9be
00000180: 2bff 9bbe 89ba 7cbe 126f 9cbe bdf1 79be
00000190: 76b9 69be 64b8 dc3e bea4 103f 6204 4dbe
000001a0: 9968 353e 0553 ae3e ebb3 a03e edeb c23e
000001b0: bac1 9cbe 9052 c9be 999c 8d3e 7e14 8bbe
000001c0: b6b2 b83e 5e30 c63e 03cc 06be addf eebe
000001d0: 7973 cb3d 29d5 f5bc 06ca a53e 32b5 c1be
000001e0: 67a2 fdbd d0a9 92be 0af0 213e 151a b1be
000001f0: d8cc a13e 53fa dcbe bbb6 803e df5b 93bd
00000200: 24af 9c3e e11c 83bd d2a1 833e 837a a6be
00000210: 2c48 8bbe 7258 c93e fe7b 90be 17df d33e
00000220: 4076 a43d 2dd9 f3be f2ac a23e 46dc b83e
00000230: 9dc0 473e 75bb db3d a122 9bbe 2746 c03e
00000240: 0798 983e 2b9e 7fbe db09 9fbe 6458 f13e
00000250: 0231 d23d 79ac fa3d f22c 603e fc42 71be
00000260: b332 bf3e ce28 91be 175e 8fbe 3f75 953e
00000270: aa4c 34be 8b30 c0be 56ea d93d 91c1 863e
00000280: 9ff4 ba3e fed0 dc3e ae94 963e b2b9 8dbe
00000290: c3eb c73e 567a f83d 02df d43e eda2 af3e
000002a0: f530 5b3e ddac a33e 9595 f5be b859 57be
000002b0: 0808 7a3e 856f 453e a0b8 b93e 53be 5dbd
000002c0: 8236 a33e f1f4 03be 5d81 c43e c630 d4bd
000002d0: 77b0 84be 0ce9 8cbe a00a 8abe 0576 9c3e
000002e0: 4971 2abe f6ab cd3e 83fa a63e dbf0 d6bd
000002f0: 3c56 8cbe bd84 bdbe bc4e 7f3e 9fb7 963e
00000300: 908d c1be 73f1 013f 0048 3b3e 592f c53e
00000310: 438d 5ebe 0c0b ae3e d352 9e3e 7ef5 ca3e
00000320: 9af7 e8be c90a 493e db9d 5a3e fe37 4abe
00000330: cf39 893e 24ae 933e 6876 8c3e 7895 a33e
00000340: 164d 30be 93dd 5dbd f7fb d33e e442 a6be
00000350: 997c 7a3e 8280 953e 225c 5b3e 0122 d73e
00000360: edfd b53e acc6 9abe af9a 0cbe b85c 903e
00000370: 4706 81be eafa 91be 51a7 dfbe cf2f bfbe
00000380: f6bf 993e 302c 3dbe 3fed a7be 60f9 47be
00000390: a5e7 ba3e 58f1 09be 23de 0cbe 4012 88be
000003a0: 7f2d 563e 4bbf f2be d729 f0be 38ae 9a3e
000003b0: f961 a9be 34a9 5bbe 7787 b2be 415f a1be
000003c0: 8a16 3e3e 34eb 953e dacd 3fbe c8a7 0c3f
000003d0: 580d ddbe 9dc7 8cbe 56be 993e 1732 a7be
000003e0: f5da 49be 57e5 b13e 189d a23e df37 7abe
000003f0: bb65 e8bd 6517 003f b0c1 5d3e 66ae 9c3e
0.3398443 -0.34842777 0.3978237 0.3903653 -0.20253287 0.010725378 0.3923047 -0.20374477
0.25664052 0.12968631 0.17768794 0.12350644 -0.36465627 0.30472055 -0.32877526 -0.36096522
-0.27913123 -0.12696023 0.18460637 -0.2427934 0.18708083 -0.18623823 -0.24652414 0.2664892
-0.25857258 0.42473048 0.21412988 0.26844755 0.2534476 0.35417134 -0.41487747 -0.2787278
-0.32681984 -0.29131347 -0.31417003 0.36229053 -0.1329879 0.30574325 -0.250884 0.32905436
-0.3358756 -0.378036 -0.45250672 -0.18787478 -0.14696391 -0.3349874 0.40163288 -0.37610808
-0.34456322 -0.30792144 0.40379456 0.32106477 -0.3544882 0.18890043 -0.28671384 -0.31200805
0.27241886 0.43787253 -0.3490668 0.14336345 -0.27162206 -0.14633593 0.31917307 0.20014437
-0.19216345 -0.2711472 -0.2317617 0.33894053 -0.14752159 -0.46349847 -0.3438268 -0.31012982
-0.46870914 0.21951635 0.16173501 -0.30942377 -0.3225767 -0.37066156 -0.3396438 -0.06440966
-0.22902845 -0.14185931 -0.39041397 0.41833112 0.16212921 0.20041017 0.23098075 -0.35239968
0.32659113 -0.30089682 0.30093816 0.3501722 0.3372217 -0.15950258 -0.4747444 -0.36181518
-0.30468115 -0.24680533 -0.3055349 -0.24408622 -0.22824654 0.4310943 0.56501377 -0.20021203
0.17715682 0.34047714 0.31387267 0.38070622 -0.30616552 -0.39320803 0.27658537 -0.27164072
0.36073846 0.38708776 -0.13163762 -0.46655026 0.09934134 -0.03000887 0.32380694 -0.37833554
-0.123844914 -0.28645182 0.15814224 -0.34590212 0.31601596 -0.43159732 0.25139412 -0.071952574
0.30602372 -0.064019926 0.25709397 -0.32515344 -0.272035 0.3932529 -0.282196 0.41381142
0.08030367 -0.4762663 0.31772572 0.36105555 0.1950707 0.10729114 -0.30299857 0.37553522
0.29803488 -0.2496268 -0.31062207 0.4713775 0.10263254 0.12239928 0.21892145 -0.23560709
0.37343368 -0.28351444 -0.28001472 0.29191014 -0.1760737 -0.37537035 0.10640399 0.26319554
0.36514756 0.43128198 0.2941031 -0.27680737 0.3904706 0.12132709 0.4157639 0.3430399
0.21405394 0.31967822 -0.47965685 -0.21030319 0.24417126 0.19280823 0.3627367 -0.054136585
0.31877524 -0.12886406 0.38379946 -0.10360865 -0.25915882 -0.2752155 -0.2696123 0.30558792
-0.16644777 0.40170258 0.32613 -0.10495158 -0.27409542 -0.37015334 0.24932379 0.29436967
-0.37803316 0.5075905 0.18289185 0.38512686 -0.21733575 0.33992803 0.30922565 0.3964042
-0.45501405 0.1963302 0.2134928 -0.19747922 0.26801917 0.28843796 0.27434087 0.31949973
-0.17216906 -0.054166388 0.4140317 -0.32472908 0.24461593 0.29199606 0.21421865 0.4201813
0.35545292 -0.302297 -0.13730882 0.2819574 -0.25200102 -0.28511745 -0.4368234 -0.37341163
0.30029267 -0.18473887 -0.32798192 -0.19528723 0.36504856 -0.13470972 -0.13756613 -0.26576424
0.20915793 -0.4741157 -0.4690692 0.30211043 -0.3308256 -0.21451265 -0.34868976 -0.31517985
0.18563285 0.29281008 -0.1873087 0.54943514 -0.43174243 -0.27496043 0.30028027 -0.32655403
-0.19712432 0.34745285 0.31760478 -0.24435376 -0.113475285 0.500357 0.21655917 0.30601805

net.9.bias f4 [10]
00000000: b3f3 b8bc bda1 723d ac68 a4bc 53a4 dfbc
00000010: c90c 30bd b8d2 d23d 78ff 95bc df1a 383c
00000020: b2a0 263c 8565 c9bd
-0.022577142 0.059236277 -0.020069443 -0.027300036 -0.042980943 0.10294098 -0.018310294 0.011236875
0.010170149 -0.098338164
