models/stolen_watermarked_model_mnist_baseline.pt (torch, 107407 bytes, 8 tensors)

net.0.weight f4 [16, 1, 8, 8]
00000000: 908a 593d ea5e f6bd c71b aebd 6a9c fdbd
00000010: 2b1e 093d 0334 423c 9e0b 913d 0a7d 6ebc
00000020: cf09 843c 750b 96bb 63f9 8f3d 6058 c8bc
00000030: 5355 74bd 1d1b 9bbc 31f5 f93c e23c 74bd
00000040: 1964 9c3d 7ac6 483d 63e9 b63d 802b e8bc
00000050: 5fe9 403d cb5a cb3d 6df9 053d 19c3 8dbd
00000060: f11d b5bc 67ee c33d ba9f 4dbc 66bf 533d
00000070: 3f92 ea3d 52c9 1b3d 5f6d 1c3d 240e 1cbc
00000080: 81d8 a23d 61eb a6bb b4c7 0c3d 6c0e 3d3d
00000090: e26f f83d 55e6 da3d 05a7 9d3c 72cd 45bd
000000a0: 29a3 76bd 9d15 04bd 449d 04bd 9814 c9bc
000000b0: 49fd c73d 3538 ed3c 8c91 cf3d bb20 3e3d
000000c0: 4462 3a3b 40ed 68bd 6164 00bd 8d94 803d
000000d0: d79d 883d c5bd 8f3d 7515 b43d da6b ab3d
000000e0: a8c4 0dbe 8bd0 bfbc b96a 95bd 1237 c2bc
000000f0: 9ea1 1b3d fa88 04be 5c99 e0bc a7cc 3fbd
00000100: 46a9 7f3d 8685 c23c f2bf cdbd 1248 bfbd
00000110: 1b3d b5bd 3ed6 dcbc 45cd b8bd 13d8 56be
00000120: 1ad8 033e 37da d0bc 55d9 563d 3df4 4a3c
00000130: 53f2 36bd 09e6 25bd d7fe 29bd 638a 07bd
00000140: 67b3 c83c f05b be3c 87e6 b5bc c929 c53c
00000150: 2c3a cc3c 679d 7a3d 228a b23d 4bea 6cbc
00000160: 2d55 093b af66 083e d8ea 1ebc 47aa 263e
00000170: 43b4 dc3d 60ce cd3d cef3 093e 7aca 573e
00000180: 55ce 9c3d 6490 f83d f1f7 0b3d 762f 783d
00000190: e834 c73d 3e41 143e 4560 e23d 2d24 c73d
000001a0: 19d2 183c 1569 6fbb 01a3 2f3d 9b90 563d
000001b0: 33aa 06bc 1d9f 84bd 6504 68bd 838d 013d
000001c0: 822a 893d d430 e9bc 2909 5ebd e14a 01bd
000001d0: f1c8 d13c 904c cdbd 79f8 7fbd 080e 79bd
000001e0: 46d4 86bd 4142 9abc 8ac6 5cb9 df94 91bd
000001f0: 6b95 2cbd 6794 d6bd 3cde b43d 8b8c 123d
00000200: 3b14 a13a 5fd2 a2bc 150e b7bc 3f26 a53c
00000210: 5073 3b3d a894 9f3d 0380 a6bb 0b51 563d
00000220: 6df1 943d 6c79 aa3c da9f 813d 2491 9e3d
00000230: 9788 543c 10f6 c33d c344 033d 5c7c ddbb
00000240: fc8b 983d 33d2 c5bc bbd9 f93b 6dff 4dbb
00000250: 968a f73d be0b 9c3d 88c5 b83d b786 903c
00000260: 0778 6cbd bcce 8e3d 94da 48bd 8ed7 f63c
00000270: 2e70 1ebd 1f69 a93d 6768 9d3d a6ca 723d
00000280: b3b8 4dbd 6031 46bd cd8c 1fbd 4e68 c13b
00000290: 338f 35bc 3668 1b3d 157c 6fbc c0cc 4cbd
000002a0: 5915 acbd bad9 96bd 855c 53bc a4d5 48bd
000002b0: 7065 92bd 7827 5dbd c4ec b4bc 89f7 5abd
000002c0: b677 83bd a84a 1cbc 9a64 b0bd 093c 03bd
000002d0: 74a5 e33c fec9 d7bc f546 0cbd e59d a0bd
000002e0: f3e3 babd c6ff 9bb9 757a 5abc 1d21 37bd
000002f0: e6c6 9dbd 64eb 9ebd e687 b1bd 1ef4 a7bd
00000300: ac9b 313d a301 a5bc efd6 a0bd 6ccc fdbd
00000310: ad5c a5bd e75e a7bd 8eca 393d d9b9 73bc
00000320: c48d 1b3d a36c d6bb 676b 7bbd dce4 dd3c
00000330: 3423 a6bd 7d96 493c 4d12 293d 1312 a0ba
00000340: b23a 34bd a961 f8bc afef 033d 8343 c0bd
00000350: cd48 883c e4d5 263d effb 983d f19c 7a3d
00000360: 0466 9abd 1d22 fe3c fa55 c0bd a7c6 3cbd
00000370: 3dfb 53bc 08a1 ec3d 3198 51bc 7c31 cd3d
00000380: 287f bdbd e2e5 afbd 6d58 a83c 7549 273d
00000390: 910b 0a3e 2b82 d83d 6e0a 3ebc 4c3c 36bc
000003a0: cd31 293d 1e9f 29bd c2da 113c 8676 c13d
000003b0: 1927 903d 50d8 153e e2c2 f93c a265 453d
000003c0: be66 cd3d 7429 2f3d 0bd5 d23d 2216 de3d
000003d0: 4fb5 933d b338 413d 18fc e9bc ca24 08bd
000003e0: 86ff b43d 4ce3 fd3d 628a a53c ab1a 333d
000003f0: 4d50 bb3c 0693 59bc 10f3 2f3c 3115 ddbd
0.05311066 -0.12029822 -0.08501392 -0.12383349 0.033476036 0.011853221 0.07082294 -0.014556179
0.016117958 -0.0045790025 0.070299886 -0.024456203 -0.059651684 -0.018933827 0.030512424 -0.059628375
0.076362796 0.049017407 0.08931234 -0.028341055 0.04709756 0.09929427 0.032708574 -0.069219775
-0.022109004 0.09566956 -0.012550289 0.051696204 0.114536755 0.03803379 0.038190242 -0.009524856
0.07951451 -0.0050939773 0.03437014 0.046156332 0.12130715 0.106884636 0.01924468 -0.04829163
-0.060214195 -0.032247175 -0.032376543 -0.024545953 0.09765107 0.028957466 0.10135183 0.046417933
0.0028439919 -0.056866884 -0.03134573 0.06278334 0.066707306 0.070186175 0.08793155 0.083701804
-0.1384455 -0.02341487 -0.07295746 -0.0237079 0.037995927 -0.12942877 -0.027416877 -0.04682603
0.06241729 0.02374531 -0.10046376 -0.09339918 -0.088495456 -0.026957627 -0.09023527 -0.20980863
0.12875405 -0.025494678 0.052453358 0.0123873325 -0.044664692 -0.04050258 -0.0415028 -0.03309096
0.024499608 0.023237199 -0.02220465 0.024067776 0.024930082 0.061185267 0.08717753 -0.014460157
0.002095531 0.1332042 -0.009699546 0.16275893 0.1077657 0.100491285 0.1347191 0.21073332
0.07656542 0.12136915 0.034172002 0.060592137 0.09726888 0.14478013 0.11053518 0.09723697
0.009327435 -0.003653114 0.042880062 0.052384 -0.00821929 -0.06475661 -0.056644816 0.031629097
0.06697561 -0.028465666 -0.054207955 -0.03156555 0.025608512 -0.10024369 -0.06249282 -0.060804397
-0.06583457 -0.01883042 -0.00021054797 -0.07108473 -0.042134684 -0.10477524 0.0883145 0.035778563
0.0012289354 -0.019875703 -0.022345582 0.020159839 0.045764267 0.07792026 -0.005081178 0.052323382
0.07272611 0.020809852 0.063293174 0.07742527 0.012972019 0.09568417 0.032048 -0.0067592096
0.07448575 -0.024148082 0.0076248324 -0.0031432763 0.1208698 0.07619427 0.09022051 0.017642362
-0.057731654 0.06973025 -0.049036577 0.030132081 -0.0386812 0.082720034 0.07685929 0.05927529
-0.05022497 -0.04838693 -0.038952637 0.0059023267 -0.011081505 0.03794118 -0.014616986 -0.049999952
-0.08402509 -0.07365747 -0.012900476 -0.04903187 -0.07148254 -0.05399272 -0.022085555 -0.053458724
-0.064193174 -0.009539284 -0.08612938 -0.032039676 0.027788855 -0.026341435 -0.034247357 -0.07842616
-0.09125509 -0.0002975447 -0.01333486 -0.044709314 -0.077039525 -0.07759741 -0.08668499 -0.082008585
0.04336135 -0.020142382 -0.07853495 -0.12392506 -0.08074317 -0.08172398 0.045359187 -0.0148758525
0.037976995 -0.006543712 -0.061381724 0.027086668 -0.08112183 0.012303946 0.04127722 -0.0012212418
-0.04400129 -0.030320005 0.032211002 -0.09387877 0.016636277 0.040731326 0.074699275 0.061184827
-0.07538989 0.031022126 -0.09391399 -0.046087887 -0.012938318 0.11554152 -0.012792633 0.10019204
-0.09252769 -0.085887685 0.020549977 0.04084154 0.13480975 0.105717026 -0.011599166 -0.011122774
0.04130726 -0.04141151 0.008902254 0.09446435 0.07038707 0.14633298 0.030488435 0.048192628
0.10029362 0.042764142 0.10294541 0.10844065 0.07212316 0.047173213 -0.02856259 -0.03323821
0.088378 0.12396869 0.020207588 0.043726604 0.022865439 -0.013279682 0.010739103 -0.107950576

net.0.bias f4 [16]
00000000: 3811 e53b cedb b6bd b1d6 103a b123 9abb
00000010: 69fb 183d b2ab 68ba 5bfa 9cbd 065e 35bd
00000020: edfe 9ebd c94e ff3a 5789 373d 4fbe 5fbc
00000030: f492 b13c 820f cb3c e72e 913c 309c 9d3c
0.006990578 -0.08928643 0.00055251556 -0.004703962 0.03734914 -0.0008875682 -0.07664939 -0.04427912
-0.07763467 0.0019478436 0.04480871 -0.013656213 0.021676518 0.024787668 0.01772256 0.019239515

net.3.weight f4 [32, 16, 4, 4]
00000000: 0b3a 343d 94b2 ac3c 99cd 0ebc bb0c e9b9
00000010: f0a9 8a3c f7ee 5b3c a323 1fbc 9136 e9bc
00000020: 23bc 293d c403 1ebd 0d89 52bc c242 91bc
00000030: 0571 973c 0111 9cbc e461 443c e049 353d
00000040: 7e24 78bc 81db 9abc c357 83bc f05b 90bc
00000050: 74e0 7bbd b6ba 86bd 2dff cbbc 42d0 48bd
00000060: 256a 15bd a106 e9bc 2f30 083c 3326 65bc
00000070: aba1 20bc 10bb 343d 6cbb 743d 0920 b73c
00000080: c392 dcbb 79b1 1b3d abdc b33c bd74 00bd
00000090: ae07 fb3b 8870 ccbc 30c9 ce3a 3889 12bd
000000a0: 0130 0c3b 105a f1bc 4575 18bd a50b 35bd
000000b0: 8f17 9bba 18f0 0bbd b851 bdbc 1fe0 86bc
000000c0: 91ac a93c 811c 333c ed62 91bc 85a9 3dbd
000000d0: 3383 4d3d 7022 0e3c 49b4 3fbc dcbe 31bd
000000e0: d1ed ff3c 14e0 27bd e4ee 4dbd b448 313d
000000f0: e8fd 833c 96b4 5cbd 7f8f e73b b093 d03c
00000100: cccc 813c 4a49 793d 05d7 ee3c 5919 bd3c
00000110: ec54 413d e668 f93b 3269 b4bc c413 983c
00000120: 2b2d 1b3d c84e f13c 947a 893c df38 bfba
00000130: b631 ff3c 83bd 16b9 c8d9 303c f79f d63c
00000140: 7a80 b23b 84d7 05bc bfc7 f93b 0702 703c
00000150: 63ac 1bbd 4a75 e1bc c4b9 debc bc1d c0bc
00000160: ca0b 09bd 94b6 ecbc bf68 13bc 7b3d ee3b
00000170: 67a5 82bc 9320 793c 73e1 acbc 22a1 ecbb
00000180: 77ae f8bb 52cb 4ebc 238c 11bd b48e f5bc
00000190: 089d 093c 0bad 80bc 49ff c6bc e3fe 1b3c
000001a0: 4a56 29bd 5fba 803a 4416 cabc 05be 3b3c
000001b0: f84f f5bc 5830 35bb b86a 8fbb fe11 e13a
000001c0: 6667 8abc 73cd bcbc 46b8 06bc 5887 043b
000001d0: a319 eebc 04ae fa3b 568c d6bc 0ae8 1b3d
000001e0: d748 29bd 5ed4 1dbd e2a5 f4bc 1b48 b6bc
000001f0: 560c d7bc aab4 d4bb 36d2 ac3c df0a 993a
00000200: 09da 56bd 2748 34bd 40a5 1dbc c759 b03c
00000210: a8f5 30bb 1568 dfbb d530 c8ba 6831 bbbb
00000220: bb4e 9e3b e08d 0e3c 677e 763c cac3 32bd
00000230: 3cfc bd3b 9ff5 8dbb ed54 80bc 677c d63b
00000240: 2944 903c 8d40 0bbd c371 0a3b 5f8e 33bc
00000250: ac80 a5bc ca25 a6bc c85f b03c 912a c73c
00000260: 391d 31bd 721d 653b a803 e3bc 0826 3d3c
00000270: acb1 c8bc 094b f6bc b361 1ebd 9740 03bc
00000280: 0f01 82bd 018a 9e3c 5a91 7d3d c4cb 273d
00000290: 13a4 7dbc 81bd 343d ecd1 533d 8315 783b
000002a0: f576 633c 4bb4 523d 080e 4f3d 4c7e f9bc
000002b0: b339 923d 20b0 9d3d 41f5 4a3d 203b 0f3d
000002c0: 81b7 64bd 9e8d 11bd 5fed 09bb 8873 6d3c
000002d0: bcda 37bd d4f4 8dbc 9e8a dc3c e4f6 023d
000002e0: 4755 4fbd b0ec d1bc f670 8fbb 094a a8bc
000002f0: 7f37 06bd a1bb a73c 0772 28bc f557 4fb9
00000300: 916f 26bd ffc5 a0b9 ee9a a93c 1d1d 37bb
00000310: 601a f7bc 8a9b c33c 470e 21bc 79be 0bbc
00000320: e8ab 2cbd 6a2f 793c 83f3 e03b d2d0 34bd
00000330: e595 923b f69e 033a d1f4 8ebc e310 513b
00000340: e871 44bd 0cad bd3c d645 b03c 73ab 963c
00000350: 0a69 debc 1eb2 7d3c 362a 3e3d df88 013d
00000360: 00a7 323d abb8 123d 8478 293d cc4e fd3c
00000370: 8b0d 803b cf8c cd3b f6ec dabc 604b c23b
00000380: 2e60 d83a 092f 8ebb df84 afbb fd00 193c
00000390: 229d 0dbc c0b0 0a3d 29d9 1e3d 9fbc c137
000003a0: 4192 3bbc 790c bcbb 4dfc 35bb 9565 d4bc
000003b0: 6b5b 02bd 4363 7b3b cc53 98bc 2703 8e3b
000003c0: 06ca 373b 8b93 ae3c 6eab 29bd 3b0d b7bc
000003d0: 5eaf 333c 95cf 39bd e232 d3bc 4b90 33bc
000003e0: d738 0a3c 9b39 61bc 2ffb d4bc efe5 bcbb
000003f0: 1bb4 e5bc a190 f93c d690 90bb faa3 9d3b
0.044000667 0.021081246 -0.0087160105 -0.00044450708 0.016926736 0.013423673 -0.009713086 -0.028468402
0.041439187 -0.03857781 -0.012850058 -0.017732028 0.01848651 -0.019051077 0.01198623 0.044259906
-0.015145419 -0.018903496 -0.016033059 -0.017621964 -0.061493352 -0.06578581 -0.02490195 -0.049026735
-0.03647818 -0.028445544 0.008312269 -0.013986158 -0.00980417 0.04412371 0.059749052 0.022354143
-0.0067313625 0.038011048 0.021955809 -0.03136133 0.0076608276 -0.024956003 0.0015776511 -0.035775393
0.0021390917 -0.02946189 -0.037221212 -0.04420056 -0.0011832583 -0.034164518 -0.023110256 -0.016464291
0.020712169 0.010932089 -0.017747367 -0.046304245 0.05017395 0.008675203 -0.011700698 -0.04339491
0.03124133 -0.040985182 -0.050276652 0.043282226 0.016112283 -0.053883158 0.0070666666 0.025461048
0.015844725 0.06086091 0.029155264 0.023083376 0.04720013 0.007611382 -0.022022817 0.018564112
0.037884872 0.029456511 0.016782083 -0.0014589092 0.031151634 -0.00014375713 0.010794111 0.026199324
0.0054474445 -0.008169059 0.0076226885 0.014648921 -0.038006198 -0.027521748 -0.02718819 -0.023451678
-0.03345851 -0.028895654 -0.008997141 0.0072705126 -0.01594801 0.01520552 -0.021103596 -0.007221357
-0.007589157 -0.0126217175 -0.035534035 -0.029975273 0.008399256 -0.015707513 -0.024291651 0.009521219
-0.041342057 0.0009821168 -0.02466882 0.011458878 -0.029945359 -0.0027647223 -0.0043767355 0.00171715
-0.016895007 -0.023047185 -0.008222645 0.0020222273 -0.029064959 0.007650139 -0.026189964 0.038063087
-0.04132923 -0.038532607 -0.029864255 -0.02225118 -0.026251 -0.0064912634 0.02109633 0.0011676213
-0.05245403 -0.044014122 -0.009621918 0.021527184 -0.0027001891 -0.0068178275 -0.0015273342 -0.005712677
0.0048311627 0.008700818 0.015044785 -0.04364375 0.005797891 -0.004332259 -0.015665496 0.0065455916
0.017610626 -0.033997107 0.0021124936 -0.010959237 -0.020202957 -0.020281691 0.021530047 0.02431229
-0.04324076 0.0034960178 -0.027711704 0.011544712 -0.024498783 -0.030065076 -0.038667392 -0.008011005
-0.06347858 0.019352915 0.061906196 0.04096581 -0.015481013 0.044126038 0.05171387 0.003785462
0.013883342 0.051441472 0.05055049 -0.03045573 0.071399115 0.07699609 0.0495503 0.034968495
-0.055839065 -0.035535447 -0.0021046025 0.014492877 -0.044886336 -0.017328657 0.026921567 0.031973734
-0.050618436 -0.025625557 -0.0043774797 -0.020543115 -0.03276777 0.02047521 -0.0102810925 -0.00019773825
-0.04063374 -0.00030665097 0.020703759 -0.0027940937 -0.030163944 0.023877878 -0.009830064 -0.008529299
-0.04215613 0.015209058 0.0068649664 -0.04414446 0.004473435 0.00050209404 -0.017450722 0.0031900934
-0.047960192 0.023153804 0.021517675 0.0183923 -0.027149696 0.015484361 0.046426974 0.03162467
0.043616295 0.035820644 0.0413747 0.030921362 0.0039078644 0.006272889 -0.02672432 0.0059293956
0.0016508156 -0.004339103 -0.0053564156 0.0093386145 -0.00864342 0.03385997 0.03878132 2.3095226e-05
-0.011448444 -0.0057387915 -0.0027768791 -0.025927344 -0.031825464 0.0038358725 -0.018594645 0.004333872
0.0028044 0.021310588 -0.041423254 -0.022345176 0.010967104 -0.04536398 -0.025781099 -0.010959695
0.008436403 -0.013746644 -0.02599868 -0.005764715 -0.028039983 0.030464472 -0.004411797 0.0048108073

net.3.bias f4 [32]
00000000: 2990 9cbc 65f7 923c 3eba 973b a48d 35bd
00000010: 8c74 baba d1e4 53bd 067b 28bd 0641 2dbd
00000020: 7b9e 2dbd 1cb1 2bbd c3a0 45bc 154d cabc
00000030: 789d 1ebc 9cce 49bd ff65 4bbc 29e5 a2bc
00000040: 8810 d73b ef6b 073c 5b3f 74bd 0f32 8abc
00000050: 14ce 04bd c608 a8bc 5fad 383c 7223 bebb
00000060: b613 0ebd 86e2 9f3a 54c7 eabc a2ac 08bd
00000070: 250f 76bd 4a96 41bd 07fa 62bb 9074 1fbd
-0.01911171 0.017940233 0.004630356 -0.044324532 -0.0014225408 -0.05173189 -0.04113295 -0.04229834
-0.042387467 -0.04191695 -0.012062254 -0.024694959 -0.009681098 -0.049269304 -0.0124144545 -0.019884663
0.00656325 0.0082654795 -0.059630733 -0.016869573 -0.032423094 -0.020511996 0.011271804 -0.0058025653
-0.034686767 0.0012198247 -0.0286595 -0.03336776 -0.060073037 -0.047262467 -0.0034633891 -0.038929522

net.7.weight f4 [32, 512]
00000000: 3c8e b7bb f8fa 093c 15de 133c c113 ddbb
00000010: fe06 b7bc 397c 8f3c d22f 983c 590c 4fbd
00000020: 3f25 fcbb 767f 5c3c dcd8 1abd 19cd 1cbd
00000030: 2f96 2a3d 0c2d a6bc a2c7 b0bc ac97 2bbd
00000040: 9fbd a53c bbe7 863d e5e3 083d 8f04 c5bc
00000050: 7e82 44bc ae81 0d3d 3d24 4d3d 95f3 98bc
00000060: 34a7 abbb 36e9 84bc f9a7 12bc e3cf 48bc
00000070: 7cca 24bc e63f 50bb 102e 04bc 3a06 19bd
00000080: f73a 473c bc9f dcbb 9a1c 12bc 0172 7e3c
00000090: d044 56bb 3710 f3bb bbd5 aabb f435 a6bc
000000a0: d7eb 9ebc f781 a03c b8ba 2d3d 7dd0 cabc
000000b0: 34bf 3c3c 5c09 febc 791c adbb 689f 36bc
000000c0: 19a4 243c d98d 133d 28be 12bc 6ed0 d3bb
000000d0: 6de1 f83c 4645 87bc 318d febc bdaa 20bb
000000e0: 6437 a2bc fb64 2bbd 1fb6 afbd 5797 21bd
000000f0: 3b16 55bc bac0 1abd 151d 16bd da02 6f3b
00000100: eb58 fd3a 0666 10bd 7c89 4ebd 1ac0 81bc
00000110: 9aaa dfbb 1f7c 933b 80db debc 5edb f63a
00000120: 7233 4f3c d017 96bc 6845 f3bc 4855 1fbd
00000130: a44f 20bc 1ed0 c3bc c9a1 01bd 658c e7bc
00000140: b6b4 3b3b 8693 eebb b934 d53a 01b7 a63b
00000150: c85b 11bd cddb a0bc 116c 7d3c 8dc9 1d3c
00000160: ebc5 88bc 4866 f1bc 3d33 19bd dc6c f93c
00000170: 4f72 fd3c 6290 01bc ec6d f7bc cad0 47bd
00000180: f8cb 093d fcd0 a63c e493 343c a3cf 55bb
00000190: 188c eaba 45b0 6f3a ccf0 c5bc a892 8c3c
000001a0: ec13 aabc ac88 203c e261 1bbc bc6f 703c
000001b0: 98d2 1c3c ed4c dcba b093 c5bc dcd9 8439
000001c0: fa27 14bb ad23 4bbc 90ce 17bd 8e76 e2bc
000001d0: b7b9 e63c c185 ac3c 7e89 bc3c 6312 2dbd
000001e0: eb82 8538 257c 1ebc 08f4 cd3c ed1f 5c3c
000001f0: f497 ed3c cfa0 b53c 8d29 7ebc 2949 333c
00000200: d007 f0bb 5e85 e4bc 92e0 443b 6923 423c
00000210: e714 0cbd 6624 65bc 5b76 93ba 03dc a73c
00000220: abe1 f1bb ee85 5fbd 1ce3 14bd 5a58 b13c
00000230: 00c3 c33c cf22 ec3b e8b8 513c 759c a8bc
00000240: c494 243c c7c7 973c 8461 ea3c db5e 5f3a
00000250: f402 93bc 54ee 863c 1480 45bc 17d5 523b
00000260: 062d aebc b74b 3f3c a95f 92bc a913 85bb
00000270: 24dd 223c 82d7 123b f7de 933c 7600 d93c
00000280: 7fac 4c3c 95e6 8bbb 3a0a 20bb 2ea7 16bc
00000290: 9964 253d 1ba6 9d3c f4df be3b a02d 48bc
000002a0: bfb9 433c 7c70 843d a7fe f43c 0d8d 2dbc
000002b0: 7597 873c 2935 8b3b 98f5 483b de15 d5bc
000002c0: bec8 9c3c 4792 613c 67cb 60bc b6fa 22bd
000002d0: 6e23 773c 633e 723d 11cf 813c f581 16bc
000002e0: 3783 6b3c 0c71 303c b176 373d 96bd 4c3c
000002f0: f95f 1c3d 99a3 dc3c 9c66 5e3b 89ef b93c
00000300: e393 e33c a4a9 e33c 3776 2d3c 43b6 1fbd
00000310: bbe7 903b 6484 fd3c 3731 afbb 07f7 c0bc
00000320: 1e1b 05bc 7096 e03c bbc6 3d39 7b20 dcbc
00000330: 8fbf e03c 09eb cabc 0c6e 45bc 8c0e bb3b
00000340: 2b6c 90bc 94a7 91bc 7a5e d5bc b7ae f9ba
00000350: a280 47bd 8dce 3dbd fe18 743c 8d78 74bc
00000360: bc02 a93b 5c00 aebc 10ec 86bd 6f8c 84bd
00000370: 1050 a0bc e249 9ebc 3844 8abc 2928 5fbc
00000380: 783a 513c 3530 9ebc 3702 8eba efb7 c5bc
00000390: 3728 71bc 98d5 1abd e518 cfbc 1345 c5bc
000003a0: b6e5 51bc b1ba 40bd 269f 13bd 151b 1b3c
000003b0: 8139 183c 456e 9a3c e5af 98bc 41d9 e0bc
000003c0: c81c 3e3c 136d 9abb 5f69 7dbb 053f 0a3c
000003d0: 25eb 1fbc 0398 75bd d40a 4abd ad4b cc3c
000003e0: 8915 933c 59ae 81bd ecb9 b2bc d1e4 6b3c
000003f0: 7545 5fbc ec78 92bc b71e 87bc a52c b0bc
-0.0056016725 0.008421652 0.009025116 -0.0067467396 -0.022342201 0.017515289 0.01857749 -0.050548885
-0.00769487 0.013458123 -0.03780447 -0.038281534 0.041647132 -0.020285152 -0.021579567 -0.041892692
0.02023202 0.06587168 0.033420462 -0.024050025 -0.011994002 0.0345475 0.050083388 -0.018670836
-0.005238438 -0.016224485 -0.008951181 -0.012256595 -0.010058042 -0.0031776368 -0.008067623 -0.037359454
0.012160054 -0.006732909 -0.008917952 0.01553011 -0.0032694824 -0.0074177044 -0.005213467 -0.020289399
-0.019399567 0.019593222 0.042414397 -0.024757618 0.011520196 -0.031010322 -0.005282935 -0.011146404
0.01004889 0.03602395 -0.00895647 -0.0064640557 0.030380929 -0.016512524 -0.031073185 -0.002451583
-0.019801803 -0.04184435 -0.08579659 -0.03945097 -0.013005788 -0.037781455 -0.03664883 0.0036470206
0.0019328868 -0.035253547 -0.050424084 -0.015838671 -0.006825757 0.0045008804 -0.027204275 0.0018833687
0.012646543 -0.018321902 -0.029696181 -0.03889969 -0.009784613 -0.023902949 -0.03164843 -0.028265188
0.0028641648 -0.0072807698 0.0016266323 0.0050877337 -0.03548792 -0.01963606 0.01546766 0.009630573
-0.016695937 -0.029467717 -0.03740238 0.030447416 0.030938296 -0.007907959 -0.030203782 -0.0487831
0.033641785 0.020363323 0.011021588 -0.0032624982 -0.0017894534 0.00091433927 -0.024162672 0.017159775
-0.020761453 0.00979821 -0.009483786 0.014675077 0.009571694 -0.0016807594 -0.024118274 0.0002533932
-0.0022606836 -0.0123986425 -0.037062228 -0.027644422 0.028164728 0.021059873 0.02301478 -0.042253863
6.3663196e-05 -0.009673153 0.025140777 0.013435346 0.029003121 0.022171406 -0.015512836 0.010942736
-0.00732515 -0.027895626 0.003004108 0.011849263 -0.03419962 -0.013985729 -0.0011250483 0.020490652
-0.007381638 -0.054571085 -0.0363494 0.021648575 0.023896694 0.007206298 0.012800433 -0.020582417
0.010045234 0.018527878 0.028610952 0.00085209095 -0.017945744 0.016471066 -0.012054462 0.0032170468
-0.021261703 0.011675767 -0.01786788 -0.0040611816 0.009940419 0.0022406285 0.018050654 0.026489478
0.012492298 -0.004269431 -0.0024420158 -0.009195132 0.04037914 0.019244244 0.005825037 -0.012217909
0.011946141 0.06466767 0.029906584 -0.010592711 0.016551713 0.0042482805 0.0030663963 -0.026011404
0.01913869 0.013767785 -0.01372037 -0.039789878 0.015084131 0.059141528 0.015845807 -0.009186258
0.014374546 0.01076914 0.044790927 0.012496373 0.038177464 0.026933478 0.0033935672 0.022697227
0.027780479 0.027790852 0.010587267 -0.038992178 0.0044221557 0.030946918 -0.005346443 -0.023555292
-0.008124141 0.027415484 0.00018098477 -0.026870957 0.027435092 -0.024770277 -0.012050163 0.005708521
-0.017629704 -0.017780103 -0.026046026 -0.0019049261 -0.04870666 -0.04633956 0.014898537 -0.01492132
0.0051577967 -0.021240406 -0.06587994 -0.06472098 -0.019569427 -0.01932234 -0.016878232 -0.013620415
0.012770288 -0.019310096 -0.00108344 -0.024135558 -0.014719061 -0.037801355 -0.025280425 -0.024080789
-0.012811115 -0.047053043 -0.036040448 0.009466906 0.009291054 0.018851409 -0.01863856 -0.027447345
0.011603542 -0.0047127097 -0.0038667542 0.008437877 -0.009760653 -0.059959423 -0.049326733 0.024938429
0.017954605 -0.06332082 -0.02181717 0.014397816 -0.0136274 -0.017879926 -0.016494138 -0.021505663

net.7.bias f4 [32]
00000000: 75b6 bcba 90ee 8a3c 8df1 01bd 2209 a93c
00000010: b920 42bb ba14 cf3c d123 c73c 1155 47bb
00000020: 0c5b 063c 4409 973c 0f4b 193b e0cb e43b
00000030: 0130 0cbc 6d09 a4bc c098 9c3c 84af 75bc
00000040: 496b 6f3b 136e 88bb 88a6 5eba 8412 86bc
00000050: 92ab 743c 3344 ae3a 908b 7c3b a309 8bbb
00000060: 9a5d a53b 5e85 17bc 37ac 1dbc 0b3a 1cbc
00000070: bb00 083b 45db 4bbc 2c90 c23c e00f 073c
-0.0014397638 0.016959459 -0.0317245 0.020634238 -0.0029621555 0.025278438 0.02430907 -0.0030415694
0.008200418 0.018437035 0.0023390686 0.0069823116 -0.008556367 -0.020024026 0.019115806 -0.0149954595
0.0036532453 -0.0041635125 -0.0008493443 -0.01636625 0.014933484 0.0013295471 0.0038535334 -0.004243092
0.0050465586 -0.009248106 -0.009623579 -0.009535323 0.0020752389 -0.012442415 0.023750387 0.008243531

net.9.weight f4 [10, 32]
00000000: ebbd cabe 875d be3e 7a12 acbe d20c e33d
00000010: 4064 8b3e f7e5 5bbe f934 453e 5578 5f3e
00000020: 9732 4a3e ef9a e5bd 3381 d53e b34d bf3e
00000030: 3182 d53e 7654 88be 1ebf e7be 3c72 9a3e
00000040: b94d bf3e 5bf4 503e 9eff 4fbe 389b 73bd
00000050: 724b a83e 4e4d 5d3e 4172 8e3e 4dc5 ab3e
00000060: 3a73 3cbe e5af cc3e 77e0 c43e 6f6d 8fbe
00000070: 125c 8bbe 9d87 8f3e 329a 663e 6275 923e
00000080: e516 a8be a3b1 9c3e 65e2 4cbe 0c63 9c3e
00000090: 94af a5be 7ccd 323e 7ad9 8ebe bfec 93be
000000a0: b519 ab3e 7676 af3e 9dec a7be 4508 a23e
000000b0: 04ce 80be cdfa 7cbe 2ea3 ff3d e3e7 92be
000000c0: db47 bc3e 242b c83e 9eaa c23e bf74 bc3e
000000d0: da28 b1be a712 b1be cd9a 873e 346c 26be
000000e0: 149e 9b3e 3983 523e 1efe 81bd 342a b73e
000000f0: 6d52 70be 4fd2 a2be 41c0 963e dbab edbb
00000100: f198 64be 52d3 43be cd79 aabe 1717 35be
00000110: 845a 9abe 763c d4be 9082 543e 59b8 ddbd
00000120: 0e4b 943e 8329 a23e 03cf bd3e ffb5 6ebe
00000130: c427 89be 51fc b6be f546 733e ac3d da3e
00000140: 64dc 58be ed1d 91be 5ca3 f23e fc82 c53e
00000150: 735e 983e 0375 6f3e 1ef7 9cbe ce3e bbbe
00000160: 708a abbe 3f15 a1be 2c67 60be 3457 40be
00000170: 06bd 353e 395f 47be e431 4e3e d31f 8c3e
00000180: b857 a33e 9d61 b2be 25b1 d23e 5473 acbe
00000190: ac4f 723e 59e8 663e e8a6 1f3e 71cb 9a3e
000001a0: 6ff5 7f3e abf5 e83d 6223 d73e cbb0 9a3e
000001b0: 4680 303e 7eb1 9e3e 3dfc 3e3e a1bc 94be
000001c0: 708e c83e 3722 d63e 2c57 dc3e 460b 943e
000001d0: 74b0 a9be b171 103e 6a72 8ebe 7715 723e
000001e0: ce94 0e3e be86 93be 7afe 6cbe 2960 3cbe
000001f0: 57ce 7e3e 6ade 9b3e c313 c4be c3af 583e
00000200: 800c 18be c777 8f3e 46b5 e63e 3b8a 973e
00000210: eecb a0be 6b6c 4f3e 0a59 0dbe e374 cb3e
00000220: de35 9ebe 71a1 853e 563e 58be 696c 6abe
00000230: 82c2 6bbe c143 afbe 0d5a 493e b82b eb3e
00000240: 722e 87be c3aa 11be 3019 46be 88e0 5fbe
00000250: a418 373e 284a aabe ff2d 6fbe c502 83be
00000260: a4f6 203e d0ec 903e e3e9 053f b5a7 8d3e
00000270: cb42 da3e b6de 7c3e 8c43 b2be 7280 86be
00000280: 21b6 a83e 0d57 cf3e 9af1 ec3e fe2b 7c3e
00000290: 8db1 833e 47cd 4b3e b990 b93e 1bf4 473e
000002a0: 3684 763e d503 b0be 8a1f 4dbe cac8 d9be
000002b0: 54e8 7e3e 063c 843e 46bf bbbe 84ea a0be
000002c0: fc04 a5be 0d56 5bbe 0ef5 56be 5395 84be
000002d0: a582 97be b215 4f3e 18e8 e53e 5a76 b53c
000002e0: b8d8 5dbe 0943 d7be f4bb 21be b3cb d73e
000002f0: ef90 26be eb26 443e 1002 9a3e f6af 993e
00000300: 4b55 c23e c3f1 c2be 620b 1dbe efd3 7b3e
00000310: 77ba ac3e 21e3 193e f58c 8bbe b58e adbe
00000320: 605b 5c3e cd7f 86be 2b5e 7f3e 6967 a3be
00000330: 4ef8 0abe 5b51 80be e393 8b3e f3a9 b43e
00000340: 6fac c53e d00e 6c3c 3d77 16be 9104 95be
00000350: 0158 a03e b656 a7be 7db3 f83e 9a10 aabe
00000360: 8c87 903e 0259 03bf ae33 5c3e 31a7 66be
00000370: 0b46 59be 488e 513e e026 4e3e b881 ccbe
00000380: 1cf2 dcbe c08d 913e e30b 6bbe 00fb 9a3e
00000390: 551c bf3e 380a c5be 16b6 203e 1ac9 573e
000003a0: 294e f3be 40ba 6c3e 03de b8be 41b7 913e
000003b0: 444d edbd b38d cd3e 8128 0b3e f731 8ebe
000003c0: cc61 a7be 46c6 8dbe 7969 8dbe 7734 883e
000003d0: 18d4 1abe 7589 403e 938a 21be a2b5 b23e
000003e0: c493 1e3e 85ff dd3e a1e6 7dbe 3cb2 cabe
000003f0: 6be2 a33e d3df b2be 478e bdbe 4ef7 9d3e
-0.3959802 0.3718073 -0.33607846 0.1108643 0.27224922 -0.21474443 0.19258489 0.21823247
0.19745861 -0.11211192 0.41700134 0.37363967 0.4170089 -0.2662694 -0.45262998 0.3016528
0.37363985 0.20405714 -0.20312354 -0.0594742 0.3287006 0.2161152 0.27821544 0.33548966
-0.1840333 0.39977947 0.38452503 -0.2801318 -0.27218682 0.28033152 0.22519758 0.2860518
-0.32829967 0.30604276 -0.20008238 0.30544317 -0.32360518 0.17461199 -0.27900296 -0.2889156
0.3341805 0.34270066 -0.3279771 0.31646934 -0.25157177 -0.24705048 0.12482296 -0.2869254
0.3677357 0.39095414 0.38020796 0.3680782 -0.3460148 -0.34584543 0.2648529 -0.16252214
0.30394042 0.2055787 -0.06347297 0.35774386 -0.23468943 -0.31801078 0.29443553 -0.007253153
-0.22323968 -0.19123581 -0.33296052 -0.1768459 -0.30147183 -0.41452378 0.2075293 -0.10826177
0.28963512 0.31672296 0.37072 -0.23311614 -0.2678815 -0.35739377 0.23757537 0.42625177
-0.21177822 -0.28343144 0.47390258 0.38576496 0.2975956 0.2338448 -0.30657285 -0.36571354
-0.33504057 -0.31461522 -0.21914357 -0.18783265 0.17747888 -0.19469918 0.2013622 0.2736803
0.31902862 -0.34840098 0.41150776 -0.33681738 0.23663205 0.22549571 0.15591013 0.30233338
0.24995969 0.113749824 0.42019182 0.30213007 0.17236432 0.3099479 0.18650909 -0.29050162
0.3917117 0.4182298 0.43035257 0.2891485 -0.33142436 0.1410587 -0.27821666 0.23641
0.13923952 -0.28813738 -0.2314395 -0.18396057 0.248834 0.30443126 -0.38296327 0.21160798
-0.14848518 0.2802107 0.45060176 0.2959765 -0.31405586 0.20256202 -0.13803497 0.39737615
-0.30900472 0.26099733 -0.2111753 -0.22892918 -0.23023418 -0.3423138 0.19663258 0.45931792
-0.26402622 -0.14225297 -0.19345546 -0.21862996 0.17880493 -0.33259702 -0.2335739 -0.2558805
0.15719086 0.28305674 0.5231001 0.27667013 0.42629084 0.24694332 -0.3481716 -0.2626987
0.32951453 0.40496102 0.46278077 0.24626157 0.25721398 0.19902526 0.36243227 0.19526713
0.24073872 -0.34377924 -0.20031562 -0.42536002 0.24893314 0.25827044 -0.36669368 -0.3142892
-0.32230365 -0.21419545 -0.20991918 -0.25895175 -0.2959186 0.2022312 0.44903636 0.022151161
-0.21664703 -0.4204333 -0.15794355 0.42147598 -0.16266225 0.19155471 0.300797 0.3001706
0.37955698 -0.38075075 -0.15336373 0.24592565 0.3373601 0.15028049 -0.2725598 -0.3389794
0.21519232 -0.2626938 0.24938266 -0.31914833 -0.13571283 -0.2506207 0.27261266 0.3528591
0.3860812 0.014407828 -0.14693923 -0.29105046 0.31317142 -0.32683343 0.4857444 -0.3321579
0.28228414 -0.5130769 0.21504089 -0.22524716 -0.21218126 0.20464432 0.20132017 -0.39942718
-0.43153465 0.2842846 -0.22953753 0.30269623 0.37326303 -0.3848436 0.1569446 0.21072808
-0.4752057 0.23117924 -0.36106881 0.28460124 -0.11587003 0.4014717 0.1358967 -0.27772495
-0.326918 -0.27690333 -0.27619532 0.26602527 -0.1511997 0.18802436 -0.15775518 0.349042
0.15486056 0.43359008 -0.24795009 -0.39589107 0.3200868 -0.3493639 -0.37022611 0.3085274

net.9.bias f4 [10]
00000000: eecc 613c 0669 33bd d635 773d 655d 563d
00000010: 318c d13b 3dc8 253d 2ad7 8ebd 27f9 e0bd
00000020: 0c2e e73c 1fbf 763d
0.013781769 -0.04380133 0.060354076 0.05233516 0.006394886 0.040474165 -0.06974633 -0.10985022
0.028220199 0.06024086
